h5totflite/modelfloat16.tflite (tflite, 13052 bytes, 6 tensors)

sequential/dense_1/BiasAdd/ReadVariableOp f2 [64]
00000000: 2132 cfa3 34a5 c4a8 74ad 7936 0228 479d
00000010: de2b ac34 a933 ffa1 0ca5 2f33 e224 7ca5
00000020: 60af 0000 022c e3a7 9c32 88a5 baa4 7b38
00000030: 3ba5 3233 272d 2b2a 86a5 4c34 b133 a829
00000040: 15a1 6b2a 3ba5 0000 b7a7 512e d133 24a2
00000050: 279d 0000 78ac 6ca4 8a29 a031 50a4 f333
00000060: f732 9434 aea0 539e 0c9f 88a6 8b33 a6a1
00000070: 0000 8731 06a1 699e 36a3 fb25 35a3 04a4
0.1915 -0.01525 -0.02032 -0.03723 -0.0852 0.4045 0.0313 -0.005154
0.06146 0.292 0.2394 -0.01171 -0.01971 0.2245 0.01907 -0.02142
-0.11523 0.0 0.0626 -0.0308 0.2065 -0.0216 -0.01846 0.56
-0.02043 0.2249 0.0805 0.0482 -0.02158 0.2686 0.2404 0.0442
-0.009926 0.05014 -0.02043 0.0 -0.03014 0.0987 0.2443 -0.01199
-0.00503 0.0 -0.0698 -0.01727 0.04327 0.1758 -0.01685 0.2484
0.2177 0.2861 -0.00914 -0.006176 -0.00688 -0.02551 0.2357 -0.01103
0.0 0.1727 -0.00981 -0.00626 -0.014084 0.02336 -0.01408 -0.01569

sequential/dense_2/BiasAdd/ReadVariableOp f2 [9]
00000000: aab0 1629 d233 2335 74aa 3e39 76ae 5c35
00000010: 8c39
-0.1458 0.03973 0.2444 0.321 -0.0504 0.6553 -0.10095 0.335
0.6934

sequential/dense/BiasAdd/ReadVariableOp f2 [64]
00000000: 8caa 0000 9434 b3ad 2732 6c2a 2aa1 4434
00000010: 5c34 5024 4e37 50a0 3caa f599 0000 0000
00000020: 9aaf 0000 8f30 7331 1834 a4ae 5ab0 b426
00000030: 72a4 2838 0000 d796 952d 0000 a2a9 2428
00000040: 0000 f396 1938 7b1c 4faa 4936 15aa 6799
00000050: 252e 5e30 42a4 4b9d 0000 6f34 1238 0000
00000060: a238 0000 dc35 ff2e 982f 8b31 9737 442f
00000070: 2faa 02af 798d ca2d 9e2e 559d 0000 2334
-0.05115 0.0 0.2861 -0.08905 0.1923 0.05017 -0.010086 0.2666
0.2725 0.01685 0.4565 -0.00842 -0.0487 -0.002909 0.0 0.0
-0.1188 0.0 0.1425 0.1703 0.2559 -0.10376 -0.136 0.02618
-0.01736 0.5195 0.0 -0.00167 0.0872 0.0 -0.044 0.03235
0.0 -0.001697 0.512 0.004375 -0.0493 0.3928 -0.04752 -0.002638
0.096 0.1365 -0.01663 -0.00517 0.0 0.277 0.509 0.0
0.579 0.0 0.3662 0.1093 0.11865 0.1732 0.4744 0.1135
-0.0483 -0.1095 -0.000334 0.09045 0.1034 -0.005207 0.0 0.2585

sequential/dense/MatMul f2 [64, 5]
00000000: 59b2 6934 b9a8 7a34 3f31 7ca8 f9a7 272d
00000010: 5cb0 6dab 99b5 6d35 f1ab c39e 2130 ea35
00000020: d527 5f32 14ba e030 e4a0 bab4 7934 91ac
00000030: e326 fc31 b232 7fae 9c34 ceb1 8c24 9d9f
00000040: 41a9 cd25 9fa9 5e33 d6b2 7832 eeba 3934
00000050: 66a0 fc32 f6b6 b32e f92e 40b6 8faa f038
00000060: 0eb9 592e b4a7 3bb6 552e bcb1 a2b0 18b8
00000070: bb2e 7b39 8bbb c930 7c2b b132 0d33 d0b9
00000080: 7f2f a2ab f0ad 212c c4a1 30a5 8227 27a4
00000090: bba6 7fa5 ee98 ac27 19a8 8aab d69e bea7
000000a0: c02e aa37 6eb6 c938 c0b2 2e2c 17ae d5ac
000000b0: 4522 2424 3bb8 533b 19b1 beb2 7c35 7b2a
000000c0: e0b5 4934 e028 d820 99ad 602d 43b4 5d2d
000000d0: aa35 9533 6137 94b5 5639 f4b5 f534 4435
000000e0: f731 6eb9 f429 2631 ae2c 78a7 2633 2c2e
000000f0: 53a4 df26 1ca4 4fac d222 8ab6 efb7 a52a
00000100: 88a8 6134 ea27 1823 caad 52a7 e0a2 db2d
00000110: 7bab b0ad 5a22 e89b 7433 c1b7 b932 3834
00000120: 5b30 84a9 9524 c691 30a5 3aa4 9d2e 0234
00000130: bd30 c5b9 bd2e 6f31 7932 8eae 4835 9dad
00000140: 54a9 d1ab 32aa 7a9c 70a8 d922 8ea8 32a6
00000150: 3125 63af 8635 42b8 95b5 aab4 aa35 b7b2
00000160: 3c36 241e 6834 fbad 372c 4233 0d33 dab9
00000170: a02e e8b8 fd2c 0a2e 4830 3bb4 ac34 4231
00000180: 762b b2b9 fe2f 5824 60aa e818 3fa5 e09f
00000190: 3c28 9030 0eb4 dc29 c12e 2cac 68a1 0933
000001a0: 65bb 5834 f326 ed20 40a0 96a8 8da9 03ac
000001b0: 9ba4 c729 e5a3 14ad dea7 a4a5 99a8 3aa0
000001c0: a7a9 ffa9 e6b0 d134 23b6 fba6 c0b5 67b8
000001d0: c5b2 a935 2b32 34ab fc1f 48aa 89ae 9b16
000001e0: f4b1 1daf f8b1 aaac 40a4 4c1d 0429 85a5
000001f0: 95ab caa5 1294 3c2a 8cb1 21b3 3934 c831
-0.1984 0.2756 -0.0369 0.2798 0.164 -0.03503 -0.03114 0.0805
-0.1362 -0.058 -0.3499 0.339 -0.06204 -0.006603 0.129 0.3696
0.0306 0.1991 -0.76 0.1523 -0.00955 -0.2954 0.2795 -0.07135
0.0269 0.187 0.2092 -0.1015 0.288 -0.1814 0.01776 -0.007435
-0.04105 0.02266 -0.0439 0.2302 -0.2136 0.2021 -0.866 0.264
-0.00859 0.2183 -0.435 0.1047 0.10895 -0.3906 -0.05124 0.617
-0.632 0.0992 -0.03009 -0.3894 0.09894 -0.1792 -0.1448 -0.5117
0.10516 0.685 -0.943 0.1495 0.05847 0.2091 0.2203 -0.7266
0.1171 -0.05963 -0.0928 0.0645 -0.01126 -0.02026 0.02933 -0.01622
-0.02629 -0.02147 -0.002407 0.02997 -0.032 -0.0589 -0.006676 -0.03024
0.10547 0.479 -0.4019 0.598 -0.2109 0.0653 -0.09515 -0.0755
0.012245 0.01617 -0.529 0.9155 -0.1593 -0.2107 0.3428 0.05063
-0.3672 0.2678 0.0381 0.00946 -0.08746 0.084 -0.2664 0.0838
0.354 0.2369 0.4612 -0.3486 0.667 -0.372 0.3098 0.329
0.1864 -0.6787 0.0465 0.1609 0.0731 -0.02917 0.2234 0.09644
-0.01689 0.02684 -0.01605 -0.0673 0.01332 -0.4087 -0.4958 0.0519
-0.0354 0.2737 0.03091 0.013855 -0.09045 -0.0286 -0.01343 0.0915
-0.05844 -0.08887 0.012405 -0.00386 0.2329 -0.4846 0.2101 0.2637
0.1361 -0.0431 0.0179 -0.000705 -0.02026 -0.01651 0.10333 0.2505
0.1481 -0.721 0.1053 0.1698 0.2023 -0.1024 0.33 -0.0877
-0.04163 -0.06107 -0.0484 -0.00437 -0.03467 0.013374 -0.03558 -0.0242
0.02028 -0.1154 0.3452 -0.532 -0.3489 -0.2915 0.354 -0.2098
0.3896 0.005997 0.2754 -0.09344 0.06586 0.2268 0.2203 -0.7314
0.1035 -0.6133 0.07794 0.09436 0.1338 -0.2644 0.292 0.1643
0.0583 -0.712 0.1249 0.01697 -0.0498 0.002396 -0.0205 -0.00769
0.03308 0.1426 -0.2534 0.04578 0.1055 -0.0652 -0.01056 0.2198
-0.9243 0.2715 0.02715 0.00962 -0.0083 -0.03583 -0.04337 -0.0627
-0.01799 0.04514 -0.01542 -0.07935 -0.03073 -0.02203 -0.03592 -0.008255
-0.04416 -0.04684 -0.1531 0.301 -0.3835 -0.02727 -0.3594 -0.5503
-0.2115 0.3538 0.1927 -0.05627 0.007797 -0.04907 -0.1021 0.001613
-0.186 -0.11115 -0.1865 -0.0729 -0.0166 0.005173 0.03918 -0.02156
-0.05923 -0.02261 -0.000994 0.0487 -0.1733 -0.2228 0.264 0.1807

sequential/dense_1/MatMul f2 [64, 64]
00000000: ec31 ee24 1532 033a b2ae 0c31 9fa7 fb3b
00000010: ff37 4c3c d8ad 3a2e 65b5 61a4 f225 2126
00000020: 7230 a72a 45b8 c49f 1434 132f af3b 5333
00000030: 6a24 be3a 9ea5 3e2d 2830 88ab e9b4 502f
00000040: 6a2d 86ac 47ba 891f 13b6 6b35 a3af 3aa9
00000050: 2e34 58b8 5d28 7020 5227 25b1 349f 01a5
00000060: a135 6ea3 d731 6a32 7935 462a 2136 0433
00000070: 10b4 1b38 eb3b 5f31 3d20 d62f 77ad 4731
00000080: 9c29 ef9e 6faa c7a7 c5ac cca3 761a 5c24
00000090: 548d ebaa ea27 32ac e120 572b 482d a42b
000000a0: 88a8 14a4 c9aa 51a9 d421 8c22 27a0 c223
000000b0: 41ac c9aa 01a8 b7a8 4c25 8f29 57a5 f8a8
000000c0: 1ba0 0d2c 63ac 5b25 289a 11a9 ae9c 5b26
000000d0: 832b 7329 712f afa5 eea5 c126 c5ad dda8
000000e0: 6c1c af9d 0ab3 0927 6225 6bac 12aa afa8
000000f0: 44af bf24 52a7 292c 909a 8420 21aa 67a1
00000100: 46ac 13a6 6b9e 3f2c 4da5 c92b d1a8 0ea9
00000110: 10ae 54ab 0fab 92aa 512f 2fae e7ac db24
00000120: 3196 65a7 8728 4aac 1aa4 3f2a c6a7 f7a7
00000130: 7528 71a9 6e9a 4409 ed99 2929 301d 362c
00000140: df24 21a7 d929 522b cd2d c4ac e8aa 7f25
00000150: c2ad f809 e79c e6a9 9d2d 27af 5fad dd2f
00000160: 8fa6 9cb1 0d29 421d 1fa9 c018 5324 33ad
00000170: 58ac b3a8 7baa 51aa 57a6 f22e 0dab 2719
00000180: d230 a227 ef33 23bc d8ae 762a 6c96 7f30
00000190: 3636 c943 ceb8 c4b4 99bd dd1e 55ac 83a6
000001a0: 7b35 09a6 3431 64ae 1433 f334 a4a9 e9ae
000001b0: fa16 9e3b 55a8 a99a 1db0 6d91 96bd e3a2
000001c0: 9727 39a4 2bbf 2d32 5cbd a9b6 a6be 53a1
000001d0: 0e2b 94c4 bf9f 0fa9 2d2a 8eb7 ce31 c62d
000001e0: 7936 2f29 f81c 872c 132d 80b2 3a39 812d
000001f0: 9d34 2cb3 e53d 8734 3834 4938 461d 8330
0.185 0.01926 0.1901 0.7515 -0.1046 0.1577 -0.02977 0.9976
0.4998 1.074 -0.0913 0.0973 -0.3372 -0.0171 0.02322 0.02394
0.1389 0.05197 -0.5337 -0.007584 0.255 0.11053 0.9604 0.2289
0.01724 0.843 -0.02194 0.0819 0.1299 -0.05884 -0.307 0.11426
0.0846 -0.0707 -0.7847 0.00736 -0.3796 0.3386 -0.1193 -0.04083
0.2612 -0.543 0.0341 0.00867 0.0286 -0.1608 -0.007034 -0.01955
0.3518 -0.01451 0.1825 0.2004 0.342 0.049 0.383 0.2192
-0.254 0.513 0.9897 0.1678 0.00828 0.12244 -0.0854 0.1649
0.04382 -0.00677 -0.05026 -0.03038 -0.0745 -0.01523 0.003155 0.01703
-0.0003252 -0.05405 0.03091 -0.06555 0.00953 0.05734 0.0825 0.0597
-0.0354 -0.01593 -0.053 -0.04153 0.01138 0.01279 -0.00811 0.01515
-0.06647 -0.053 -0.03128 -0.03683 0.02069 0.04343 -0.02086 -0.03882
-0.00802 0.0633 -0.06854 0.02092 -0.003006 -0.03958 -0.00457 0.02483
0.0587 0.04257 0.1163 -0.0222 -0.02316 0.02638 -0.09015 -0.038
0.00432 -0.00555 -0.22 0.02748 0.02103 -0.06903 -0.04742 -0.0366
-0.1135 0.01854 -0.0286 0.065 -0.003204 0.00882 -0.04788 -0.01055
-0.0668 -0.02373 -0.006268 0.06635 -0.0207 0.06082 -0.03763 -0.0395
-0.0947 -0.05725 -0.05515 -0.05133 0.1143 -0.0966 -0.0766 0.01897
-0.001512 -0.02888 0.03537 -0.067 -0.01602 0.0488 -0.03036 -0.03111
0.03482 -0.0425 -0.00314 0.0001607 -0.002893 0.0403 0.005066 0.0658
0.01903 -0.02785 0.0457 0.0572 0.09064 -0.07446 -0.05396 0.02147
-0.08997 0.0001822 -0.004787 -0.04608 0.0877 -0.11176 -0.0839 0.12286
-0.02562 -0.1753 0.03946 0.005135 -0.04 0.00232 0.01689 -0.08124
-0.0679 -0.0367 -0.05063 -0.04935 -0.02477 0.1085 -0.05508 0.002516
0.1506 0.02982 0.2479 -1.034 -0.10693 0.05048 -0.001568 0.1405
0.3882 3.893 -0.6006 -0.2979 -1.399 0.006702 -0.0677 -0.02544
0.3425 -0.02357 0.1626 -0.09985 0.2212 0.3093 -0.04407 -0.108
0.001703 0.952 -0.03384 -0.003252 -0.1285 -0.0006623 -1.396 -0.01345
0.02965 -0.0165 -1.792 0.193 -1.34 -0.4163 -1.662 -0.0104
0.0551 -4.58 -0.007565 -0.03952 0.04825 -0.4722 0.1814 0.0902
0.4045 0.0405 0.004852 0.07074 0.0793 -0.2031 0.6533 0.086
0.2883 -0.2241 1.474 0.283 0.2637 0.5356 0.00515 0.141

sequential/dense_2/MatMul f2 [9, 64]
00000000: c3b0 fba0 23a6 e8b9 df38 43b0 7d3c 14a8
00000010: 4ab4 ef37 ceaf 021c b42b 85b4 0436 e625
00000020: 0d39 43a9 45bb b2a9 1ead 08a4 c9a8 92c0
00000030: 9326 64b6 a83c 0432 bca8 0eb8 8abd f03b
00000040: d9a2 7cb8 512c 2925 8d3c a53c 592d 122b
00000050: d722 d8a8 fcbc fea9 7637 ec2c b325 5e33
00000060: dcb2 1c37 6a29 9028 d1a3 d9a9 842e e32c
00000070: 0326 6cb3 0da2 dda6 bbac 1734 e39f 8c24
00000080: 6235 d9a1 a724 1835 0aae 2a3a d8b8 51ad
00000090: b13c 1f30 52b4 00a7 2d2c cdb7 ba36 ee28
000000a0: b72c f92b 9fb0 9e98 a0b1 48ac bbae 70b8
000000b0: 032b a5b7 08bc 2935 d5ad 18b6 2a38 04bb
000000c0: 452c f93a 4e19 d0a8 df41 2ab8 6434 a2a8
000000d0: 6ca8 121e c43c 0e2c 8b39 672d 2fac 5c33
000000e0: 40b5 eb9a e3a6 57ae 54ab fc1f 3131 c520
000000f0: 1bac cf39 fa20 7ea1 09ab d435 ac9e d721
00000100: 8d34 6427 9a9d ef34 7d32 6834 eb29 e8a8
00000110: cfb0 0332 8c32 a7ac 51a9 b42c bfb0 73a6
00000120: c5af fe0c 8bb5 2729 ee30 cbac a52b 1bb8
00000130: 1c25 4f18 0cb7 c12e 84ae 1aaf 0aa7 c631
00000140: a41c 08b0 2a26 efa6 ff30 8ea1 6124 21a3
00000150: 23a7 959a 95b4 a2ad 1fae 7d35 be96 c534
00000160: b3a9 2dae 319d 822b c913 ca29 6532 afa7
00000170: ffa9 0138 e7a6 8da6 5ea3 e92c 222c d09e
00000180: a82e b899 c61f 1bba 6db4 ff35 3fb8 7527
00000190: e936 fa33 ada9 54ab ada0 54b7 72ad 8725
000001a0: 45b4 782a 8cad 6c1f d9ac 0829 1a2d 1840
000001b0: caa7 f6b6 12bb 3a25 f32d 50b7 b53d b52b
000001c0: 5dab 7ab9 80ac 36a4 c83c 95b8 0535 75aa
000001d0: 62a9 3728 53a9 4427 58b4 2930 2f29 8933
000001e0: a1b7 0434 1da9 a0a9 2c2b 189a 8031 64a6
000001f0: be2a 6fb0 9127 d3ab c41d 37a3 a7ac 0228
-0.1488 -0.00973 -0.02397 -0.7383 0.609 -0.1332 1.122 -0.03186
-0.268 0.4958 -0.12195 0.003914 0.06018 -0.2825 0.376 0.02304
0.6313 -0.0411 -0.9087 -0.0445 -0.07996 -0.01575 -0.03738 -2.285
0.02568 -0.3994 1.164 0.188 -0.037 -0.507 -1.385 0.992
-0.013374 -0.5605 0.06744 0.02016 1.138 1.161 0.08356 0.05524
0.01336 -0.03784 -1.246 -0.0468 0.4663 0.0769 0.02226 0.2302
-0.2144 0.4443 0.0423 0.03564 -0.01527 -0.0457 0.1018 0.07635
0.02348 -0.2319 -0.01182 -0.02681 -0.0739 0.2556 -0.0077 0.01776
0.3364 -0.01142 0.01817 0.3184 -0.09436 0.7705 -0.6055 -0.08307
1.173 0.1288 -0.27 -0.02734 0.06525 -0.4875 0.4204 0.0385
0.07367 0.0623 -0.1444 -0.002254 -0.1758 -0.0669 -0.10516 -0.5547
0.05478 -0.4778 -1.008 0.3225 -0.0911 -0.3809 0.5205 -0.877
0.0667 0.8716 0.00259 -0.0376 2.936 -0.5205 0.2744 -0.0362
-0.03455 0.005928 1.191 0.06335 0.693 0.0844 -0.06537 0.23
-0.3281 -0.003378 -0.0269 -0.09906 -0.05725 0.007797 0.1622 0.009315
-0.06415 0.726 0.00972 -0.01073 -0.05496 0.3643 -0.006516 0.011406
0.2844 0.02887 -0.00547 0.3083 0.2028 0.2754 0.04623 -0.03833
-0.1503 0.1879 0.2046 -0.0727 -0.04153 0.0735 -0.1483 -0.02519
-0.1214 0.0003047 -0.3464 0.04025 0.154 -0.0749 0.05972 -0.513
0.01996 0.002104 -0.4404 0.1055 -0.1018 -0.11096 -0.0275 0.1804
0.00453 -0.126 0.02408 -0.02708 0.1561 -0.01085 0.0171 -0.01392
-0.02788 -0.003214 -0.2864 -0.088 -0.09564 0.343 -0.001646 0.298
-0.04453 -0.0965 -0.00507 0.05865 0.0009503 0.04523 0.1998 -0.03001
-0.04684 0.5005 -0.02696 -0.02559 -0.01439 0.0767 0.0646 -0.006653
0.104 -0.002792 0.00759 -0.763 -0.2766 0.3748 -0.531 0.02913
0.432 0.2493 -0.04434 -0.05725 -0.00913 -0.458 -0.0851 0.02159
-0.2668 0.05054 -0.0867 0.007248 -0.07574 0.0393 0.0797 2.047
-0.03043 -0.435 -0.884 0.02042 0.09296 -0.457 1.427 0.0602
-0.05753 -0.6846 -0.0703 -0.01645 1.195 -0.5728 0.3137 -0.05045
-0.04205 0.03293 -0.0416 0.02838 -0.2715 0.13 0.0405 0.2355
-0.4768 0.251 -0.03995 -0.04395 0.05603 -0.002975 0.1719 -0.02496
0.05267 -0.1385 0.02956 -0.06113 0.00563 -0.01409 -0.0727 0.0313
