h5totflite/Newmodel.tflite (tflite, 22396 bytes, 6 tensors)

sequential/dense_1/BiasAdd/ReadVariableOp f4 [64]
0	0x3e44240d	0.19154377
1	0xbc79d0dc	-0.01524755
2	0xbca671e6	-0.020317983
3	0xbd1879d2	-0.037225552
4	0xbdae7a8c	-0.08519468
5	0x3ecf1253	0.40443668
6	0x3d004f6b	0.03132574
7	0xbba8ef3a	-0.005155471
8	0x3d7bc98a	0.0614715
9	0x3e957a6d	0.29194966
10	0x3e752dfd	0.23943324
11	0xbc3fe813	-0.011713046
12	0xbca1878e	-0.019717958
13	0x3e65e3b2	0.2245014
14	0x3c9c4de9	0.01908012
15	0xbcaf81a2	-0.021424118
16	0xbdec0f53	-0.1152636
17	0x00000000	0.0
18	0x3d8040ea	0.062623814
19	0xbcfc6738	-0.030810937
20	0x3e537319	0.20649375
21	0xbcb10720	-0.021609843
22	0xbc97328a	-0.018456716
23	0x3f0f5e2e	0.5600308
24	0xbca75dcd	-0.02043047
25	0x3e664342	0.22486594
26	0x3da4d9b7	0.08049338
27	0x3d455bad	0.048183132
28	0xbcb0b1b0	-0.021569103
29	0x3e898308	0.2685778
30	0x3e76195e	0.24033114
31	0x3d34f43d	0.044178236
32	0xbc229a73	-0.009924519
33	0x3d4d671d	0.050147165
34	0xbca760cd	-0.0204319
35	0x00000000	0.0
36	0xbcf6e6a3	-0.030139273
37	0x3dca299c	0.098712176
38	0x3e7a159a	0.24422303
39	0xbc44826e	-0.0119939875
40	0xbba4d3fa	-0.0050301524
41	0x00000000	0.0
42	0xbd8effbf	-0.069823734
43	0xbc8d712a	-0.017265875
44	0x3d313d4f	0.04327136
45	0x3e340109	0.1757852
46	0xbc8a0c64	-0.016851611
47	0x3e7e544a	0.24836841
48	0x3e5ed0e5	0.21759374
49	0x3e928301	0.28615573
50	0xbc15ccf5	-0.009143104
51	0xbbca66f8	-0.0061768256
52	0xbbe1826d	-0.006882003
53	0xbcd1068d	-0.025515819
54	0x3e71573b	0.23568432
55	0xbc34b2c2	-0.011028947
56	0x00000000	0.0
57	0x3e30d52d	0.1726882
58	0xbc20b8c5	-0.0098096775
59	0xbbcd205a	-0.00625996
60	0xbc66c2bd	-0.014084515
61	0x3cbf590c	0.02335789
62	0xbc66aa1f	-0.014078646
63	0xbc80834f	-0.015687613

sequential/dense_2/BiasAdd/ReadVariableOp f4 [9]
0	0xbe15418d	-0.14575787
1	0x3d22cd86	0.039746784
2	0x3e7a3f81	0.24438287
3	0x3ea46105	0.3210527
4	0xbd4e8b1a	-0.050425626
5	0x3f27ca2d	0.6554287
6	0xbdcecb87	-0.100974135
7	0x3eab759d	0.3348817
8	0x3f317d96	0.69332254

sequential/dense/BiasAdd/ReadVariableOp f4 [64]
0	0xbd517dda	-0.051145412
1	0x00000000	0.0
2	0x3e9281e1	0.28614715
3	0xbdb666d7	-0.08906334
4	0x3e44e32a	0.19227281
5	0x3d4d8a9e	0.050181024
6	0xbc253ad9	-0.010084831
7	0x3e888ecf	0.26671454
8	0x3e8b7a5a	0.27241784
9	0x3c8a05a2	0.016848389
10	0x3ee9b80a	0.45648223
11	0xbc0a03bd	-0.008423743
12	0xbd477555	-0.04869588
13	0xbb3eaf1c	-0.0029096073
14	0x00000000	0.0
15	0x00000000	0.0
16	0xbdf34b08	-0.118795455
17	0x00000000	0.0
18	0x3e11e1c2	0.14246276
19	0x3e2e5f62	0.17028573
20	0x3e82fbe5	0.25582805
21	0xbdd480b3	-0.1037611
22	0xbe0b3d18	-0.13597524
23	0x3cd68113	0.026184594
24	0xbc8e3ec8	-0.01736392
25	0x3f050273	0.5195686
26	0x00000000	0.0
27	0xbadad9d5	-0.0016696999
28	0x3db2a4fd	0.08722875
29	0x00000000	0.0
30	0xbd3440fa	-0.04400728
31	0x3d047191	0.032334868
32	0x00000000	0.0
33	0xbade6e92	-0.0016970208
34	0x3f032d92	0.5124141
35	0x3b8f683a	0.0043764384
36	0xbd49dfb4	-0.049285606
37	0x3ec911ce	0.39271396
38	0xbd4297a1	-0.047507886
39	0xbb2ceb52	-0.002638538
40	0x3dc49c10	0.09600079
41	0x3e0bccd7	0.13652359
42	0xbc883e45	-0.016631255
43	0xbba96714	-0.0051697586
44	0x00000000	0.0
45	0x3e8dd4f5	0.27701536
46	0x3f024a61	0.50894743
47	0x00000000	0.0
48	0x3f144faa	0.5793406
49	0x00000000	0.0
50	0x3ebb7de2	0.36619478
51	0x3ddfd673	0.10929575
52	0x3df2f6a6	0.11863451
53	0x3e315a12	0.17319515
54	0x3ef2ea7e	0.47444528
55	0x3de878a7	0.113511376
56	0xbd45e8eb	-0.04831783
57	0xbde035c4	-0.10947755
58	0xb9af1a04	-0.00033397984
59	0x3db94acd	0.0904747
60	0x3dd3b49a	0.103371814
61	0xbbaaad6a	-0.005208661
62	0x00000000	0.0
63	0x3e8466cc	0.25859678

sequential/dense/MatMul f4 [64, 5]
0	0xbe4b2fd2	-0.19842461
1	0x3e8d279c	0.27569282
2	0xbd172abe	-0.036905997
3	0x3e8f4e97	0.27989647
4	0x3e27df80	0.16393852
5	0xbd0f8021	-0.035034303
6	0xbcff2a75	-0.031148175
7	0x3da4e783	0.0805197
8	0xbe0b7139	-0.1361741
9	0xbd6da548	-0.058018953
10	0xbeb32479	-0.34988764
11	0x3ead9bbf	0.33907887
12	0xbd7e1a32	-0.0620367
13	0xbbd86cdb	-0.0066047735
14	0x3e042ef1	0.12908532
15	0x3ebd4e29	0.36973694
16	0x3cfa9d6a	0.030592639
17	0x3e4be325	0.19910868
18	0xbf4272a8	-0.759562
19	0x3e1bfe34	0.1523369
20	0xbc1c742c	-0.009549182
21	0xbe973204	-0.29530346
22	0x3e8f214d	0.27955094
23	0xbd922df8	-0.07137674
24	0x3cdc5b9c	0.026899152
25	0x3e3f77b6	0.1869801
26	0x3e563f5f	0.20922612
27	0xbdcfe97b	-0.10151955
28	0x3e93723b	0.28798088
29	0xbe39ca85	-0.18143661
30	0x3c918624	0.017764159
31	0xbbf3a591	-0.0074355085
32	0xbd281a43	-0.04104067
33	0x3cb9adb1	0.02266583
34	0xbd33db73	-0.043910455
35	0x3e6bb168	0.23016894
36	0xbe5acc45	-0.21366985
37	0x3e4ef6f8	0.20211399
38	0xbf5dc1f7	-0.8662409
39	0x3e872f9d	0.26403514
40	0xbc0ccb74	-0.008593429
41	0x3e5f853a	0.21828166
42	0xbedecf92	-0.4351774
43	0x3dd66f54	0.10470453
44	0x3ddf11b4	0.108920485
45	0xbec80ae1	-0.390708
46	0xbd51e00c	-0.05123906
47	0x3f1e0c98	0.61737967
48	0xbf21ce10	-0.6320505
49	0x3dcb1659	0.09916372
50	0xbcf68529	-0.030092793
51	0xbec75e4e	-0.38939136
52	0x3dcaa8a1	0.09895445
53	0xbe37795a	-0.17917386
54	0xbe1437ed	-0.14474459
55	0xbf0306c3	-0.5118219
56	0x3dd765ab	0.105174385
57	0x3f2f61b1	0.6850844
58	0xbf7156ee	-0.9427327
59	0x3e192cc4	0.14958483
60	0x3d6f7155	0.05845769
61	0x3e5629e3	0.20914416
62	0x3e61967f	0.22030066
63	0xbf3a01de	-0.726591
64	0x3defd45e	0.11710428
65	0xbd74336b	-0.05961935
66	0xbdbdfc8c	-0.09276685
67	0x3d841b99	0.06450576
68	0xbc388a16	-0.011263391
69	0xbca5fdf9	-0.020262705
70	0x3cf03cd0	0.029325873
71	0xbc84e13a	-0.016220678
72	0xbcd76bff	-0.026296614
73	0xbcafdb71	-0.021466943
74	0xbb1dc516	-0.0024073771
75	0x3cf57368	0.029962257
76	0xbd0322c1	-0.032015566
77	0xbd7136f3	-0.058890294
78	0xbbdab967	-0.0066749337
79	0xbcf7bf7f	-0.03024268
80	0x3dd7f839	0.105453916
81	0x3ef53a50	0.4789605
82	0xbecdbf53	-0.4018503
83	0x3f191385	0.5979541
84	0xbe57fa18	-0.21091497
85	0x3d85b733	0.06529083
86	0xbdc2e46f	-0.095162265
87	0xbd9aa886	-0.075516745
88	0x3c48ad6f	0.012248381
89	0x3c8483cc	0.016176127
90	0xbf0753e4	-0.5286238
91	0x3f6a5d70	0.91548824
92	0xbe2321ce	-0.15930864
93	0xbe57bb3d	-0.2106752
94	0x3eaf8dcc	0.3428787
95	0x3d4f65c7	0.05063417
96	0xbebc075e	-0.3672437
97	0x3e891086	0.2677042
98	0x3d1bf9e5	0.038080115
99	0x3c1b04a7	0.009461558
100	0xbdb318bd	-0.08744953
101	0x3dabfc02	0.08397676
102	0xbe886f8f	-0.26647612
103	0x3dab9110	0.08377278
104	0x3eb53017	0.35388252
105	0x3e72a6bd	0.23696418
106	0x3eec140a	0.4610904
107	0xbeb27545	-0.34855095
108	0x3f2ac88d	0.66712266
109	0xbebe84d5	-0.37210718
110	0x3e9e97c6	0.3097517
111	0x3ea8859e	0.32914442
112	0x3e3ee7aa	0.1864306
113	0xbf2dc10c	-0.6787269
114	0x3d3e78da	0.04650197
115	0x3e24ca71	0.1609285
116	0x3d95bc00	0.07311249
117	0xbceefb7f	-0.029172657
118	0x3e64cf37	0.22344671
119	0x3dc57569	0.09641535
120	0xbc8a538a	-0.016885538
121	0x3cdbe76c	0.026843749
122	0xbc83829f	-0.016053496
123	0xbd89ebad	-0.06734405
124	0x3c5a3784	0.0133189
125	0xbed13162	-0.4085799
126	0xbefdd7bc	-0.49578655
127	0x3d54aa46	0.051920198
128	0xbd1101c4	-0.035402074
129	0x3e8c1a82	0.27363974
130	0x3cfd3567	0.030909253
131	0x3c63026a	0.013855556
132	0xbdb93317	-0.09042948
133	0xbcea4623	-0.028597897
134	0xbc5bfc8d	-0.013426912
135	0x3dbb60a6	0.091492936
136	0xbd6f6519	-0.058446024
137	0xbdb6089b	-0.0888836
138	0x3c4b3cb8	0.012404613
139	0xbb7d0282	-0.003860623
140	0x3e6e7634	0.23287278
141	0xbef82737	-0.4846742
142	0x3e571cc3	0.21007065
143	0x3e8707fc	0.2637328
144	0x3e0b6320	0.13612032
145	0xbd307070	-0.04307598
146	0x3c929627	0.017893864
147	0xba38c100	-0.0007047802
148	0xbca5fe5b	-0.020262888
149	0xbc873ed3	-0.01650945
150	0x3dd39258	0.10330647
151	0x3e803892	0.2504316
152	0x3e179550	0.14803052
153	0xbf38928f	-0.7209863
154	0x3dd79b2d	0.10527644
155	0x3e2dd72a	0.1697661
156	0x3e4f102f	0.20221017
157	0xbdd1cc80	-0.102440834
158	0x3ea90bbd	0.33016768
159	0xbdb3966b	-0.08768924
160	0xbd2a8923	-0.04163469
161	0xbd7a1c07	-0.061061885
162	0xbd463702	-0.048392303
163	0xbb8f3eb4	-0.0043714885
164	0xbd0df047	-0.034652974
165	0x3c5b1785	0.013372307
166	0xbd11cdc9	-0.035596643
167	0xbcc64f99	-0.024207877
168	0x3ca62615	0.02028183
169	0xbdec6a80	-0.11543751
170	0x3eb0bab5	0.34517446
171	0xbf0844b4	-0.5322983
172	0xbeb2acfe	-0.34897608
173	0xbe954646	-0.29155177
174	0x3eb5410a	0.35401183
175	0xbe56d54a	-0.20979801
176	0x3ec78098	0.38965297
177	0x3bc4792c	0.00599589
178	0x3e8cfb81	0.27535632
179	0xbdbf63f8	-0.093452394
180	0x3d86d208	0.06583029
181	0x3e6833bf	0.2267599
182	0x3e619f67	0.22033463
183	0xbf3b3b32	-0.731372
184	0x3dd3f7b9	0.10349984
185	0xbf1d0a84	-0.6134417
186	0x3d9fa25e	0.07794641
187	0x3dc14947	0.09437805
188	0x3e08f164	0.13373333
189	0xbe875dd9	-0.26438788
190	0x3e958f40	0.29210854
191	0x3e283962	0.1642814
192	0x3d6ec4b9	0.058293078
193	0xbf364b21	-0.7120839
194	0x3dffbebf	0.12487554
195	0x3c8afd24	0.01696641
196	0xbd4c0aa3	-0.04981483
197	0x3b1d076f	0.002396073
198	0xbca7e98b	-0.020497104
199	0xbbfc08f7	-0.0076914984
200	0x3d07769b	0.033072095
201	0x3e11fc3b	0.14256375
202	0xbe81c407	-0.2534487
203	0x3d3b74b0	0.04576558
204	0x3dd81514	0.10550895
205	0xbd857503	-0.06516459
206	0xbc2cf486	-0.010556346
207	0x3e611e99	0.21984328
208	0xbf6c94f3	-0.9241478
209	0x3e8b0c80	0.27157974
210	0x3cde6811	0.027149232
211	0x3c1d9b39	0.0096195275
212	0xbc080131	-0.008301065
213	0xbd12bd76	-0.035825215
214	0xbd3198f4	-0.043358758
215	0xbd8069a8	-0.06270152
216	0xbc9365af	-0.017992822
217	0x3d38defe	0.045134537
218	0xbc7c92e5	-0.015415882
219	0xbda27837	-0.079330854
220	0xbcfbc128	-0.030731753
221	0xbcb48c57	-0.022039576
222	0xbd1318d2	-0.035912342
223	0xbc07487d	-0.008257029
224	0xbd34ea58	-0.0441688
225	0xbd3fe2ad	-0.046847034
226	0xbe1ccc8a	-0.153124
227	0x3e9a21a1	0.30103782
228	0xbec46733	-0.38359985
229	0xbcdf59fb	-0.027264586
230	0xbeb80525	-0.35941425
231	0xbf0cdb24	-0.5502188
232	0xbe58ad11	-0.2115977
233	0x3eb51a3b	0.35371575
234	0x3e455fa6	0.19274768
235	0xbd66705f	-0.05625951
236	0x3bff7ea5	0.0077970796
237	0xbd490295	-0.049074728
238	0xbdd11b10	-0.1021024
239	0x3ad361cf	0.0016127172
240	0xbe3e8c66	-0.18608245
241	0xbde39b2d	-0.11113582
242	0xbe3f0cdf	-0.18657254
243	0xbd9541fa	-0.07287975
244	0xbc880601	-0.016604425
245	0x3ba971d0	0.005171038
246	0x3d20763a	0.03917525
247	0xbcb0a885	-0.021564731
248	0xbd7299f0	-0.059228837
249	0xbcb93431	-0.022607895
250	0xba8242aa	-0.000993808
251	0x3d477c4b	0.04870252
252	0xbe3187a4	-0.17336899
253	0xbe64268e	-0.22280332
254	0x3e871faf	0.2639136
255	0x3e38f8c9	0.18063654

sequential/dense_1/MatMul f4 [64, 64]
0	0x3e3d73ac	0.18501157
1	0x3c9db574	0.019251563
2	0x3e42a9c1	0.19010068
3	0x3f406c6b	0.7516543
4	0xbdd64e66	-0.10464172
5	0x3e217b38	0.1576966
6	0xbcf3d262	-0.029763404
7	0x3f7f5122	0.99733174
8	0x3effdfce	0.49975437
9	0x3f898377	1.0743245
10	0xbdbb0472	-0.09131707
11	0x3dc73ca4	0.09728363
12	0xbeac94b7	-0.3370721
13	0xbc8c16f8	-0.017100796
14	0x3cbe3df7	0.023222907
15	0x3cc41ffb	0.02394103
16	0x3e0e321d	0.13886304
17	0x3d54e768	0.0519785
18	0xbf08a357	-0.53374237
19	0xbbf87247	-0.0075819823
20	0x3e82740c	0.25479162
21	0x3de26e5e	0.11056207
22	0x3f75e79d	0.9605654
23	0x3e6a63d2	0.22889641
24	0x3c8d4d8b	0.01724889
25	0x3f57c44f	0.8428392
26	0xbcb3bf0d	-0.021941686
27	0x3da7b6e2	0.08189179
28	0x3e04f656	0.12984595
29	0xbd70f568	-0.058827788
30	0xbe9d2a98	-0.3069656
31	0x3dea027d	0.11426256
32	0x3dad3f72	0.08459367
33	0xbd90cac0	-0.070699215
34	0xbf48e230	-0.78470135
35	0x3bf117c1	0.007357568
36	0xbec25d47	-0.3796179
37	0x3ead6171	0.33863404
38	0xbdf46003	-0.11932375
39	0xbd2733ba	-0.040820815
40	0x3e85c3cd	0.26125947
41	0xbf0af524	-0.54280305
42	0x3d0b9ec2	0.03408695
43	0x3c0df00e	0.0086631905
44	0x3cea3fd7	0.028594894
45	0xbe24a846	-0.16079816
46	0xbbe67785	-0.007033291
47	0xbca0121f	-0.01953989
48	0x3eb41310	0.35170794
49	0xbc6dbe48	-0.014510699
50	0x3e3aed38	0.18254554
51	0x3e4d436d	0.20045252
52	0x3eaf1cd9	0.34201697
53	0x3d48b810	0.04900366
54	0x3ec424ab	0.38309225
55	0x3e60712c	0.21918172
56	0xbe820966	-0.25397795
57	0x3f0358e3	0.51307505
58	0x3f7d6494	0.98981595
59	0x3e2bdef8	0.16784275
60	0x3c0793d2	0.008274989
61	0x3dfaca85	0.12245659
62	0xbdaed3c3	-0.08536484
63	0x3e28e4f8	0.16493595
64	0x3d338cc1	0.043835405
65	0xbbddef3d	-0.006772904
66	0xbd4dee92	-0.050276347
67	0xbcf8e663	-0.030383294
68	0xbd9891af	-0.07449662
69	0xbc797aab	-0.015227
70	0x3b4ebc92	0.0031545502
71	0x3c8b7fbf	0.017028688
72	0xb9aa801a	-0.0003252037
73	0xbd5d5b05	-0.05404188
74	0x3cfd3918	0.030911013
75	0xbd864153	-0.06555428
76	0x3c1c139e	0.0095261615
77	0x3d6ae523	0.057347428
78	0x3da8f07a	0.08248992
79	0x3d74710b	0.05967812
80	0xbd11038e	-0.03540378
81	0xbc828117	-0.015930695
82	0xbd5917c9	-0.0530012
83	0xbd2a291c	-0.04154311
84	0x3c3a7f32	0.011382865
85	0x3c517c08	0.012785919
86	0xbc04e955	-0.008112271
87	0x3c784f95	0.015155693
88	0xbd882513	-0.06647696
89	0xbd5928e2	-0.053017505
90	0xbd0029eb	-0.031289976
91	0xbd16e4df	-0.036839362
92	0x3ca9852c	0.020693384
93	0x3d31d988	0.043420345
94	0xbcaadf14	-0.020858325
95	0xbd1f0ff1	-0.038833562
96	0xbc036f9c	-0.008022215
97	0x3d81a52b	0.063303314
98	0xbd8c6662	-0.068554655
99	0x3cab5230	0.020913213
100	0xbb450bc7	-0.0030066834
101	0xbd2220a9	-0.03958193
102	0xbb95c06b	-0.004570057
103	0x3ccb5825	0.024822304
104	0x3d70654b	0.05869035
105	0x3d2e5467	0.04256096
106	0x3dee145b	0.11624976
107	0xbcb5d2cb	-0.02219524
108	0xbcbdcb58	-0.02316825
109	0x3cd8246d	0.026384557
110	0xbdb8a9a5	-0.09016732
111	0xbd1baaf1	-0.03800482
112	0x3b8d8dfa	0.0043199034
113	0xbbb5e8e5	-0.005551445
114	0xbe61462e	-0.21999428
115	0x3ce12a70	0.027486056
116	0x3cac446d	0.021028722
117	0xbd8d5117	-0.06900232
118	0xbd42400c	-0.04742436
119	0xbd15e681	-0.03659678
120	0xbde87244	-0.113499194
121	0x3c97d55a	0.018534351
122	0xbcea3302	-0.028588776
123	0x3d851da7	0.06499796
124	0xbb520962	-0.003204905
125	0x3c107f6b	0.008819441
126	0xbd441ce3	-0.04787911
127	0xbc2cdc65	-0.010550593
128	0xbd88cfed	-0.06680284
129	0xbcc26750	-0.023730904
130	0xbbcd5558	-0.0062662773
131	0x3d87de56	0.06634204
132	0xbca9a008	-0.020706192
133	0x3d792c60	0.060833335
134	0xbd1a1141	-0.03761411
135	0xbd21c5b2	-0.039495178
136	0xbdc20f4b	-0.09475573
137	0xbd6a8bf0	-0.05726236
138	0xbd61d6c4	-0.055136457
139	0xbd524d92	-0.051343508
140	0x3dea2ab9	0.1143393
141	0xbdc5d0ab	-0.09658941
142	0xbd9cdc94	-0.076592594
143	0x3c9b5ff0	0.018966645
144	0xbac61c2b	-0.0015114596
145	0xbcecad4f	-0.028891234
146	0x3d10db1b	0.035365205
147	0xbd894907	-0.06703382
148	0xbc833e4b	-0.016020915
149	0x3d47dcfb	0.048794728
150	0xbcf8b874	-0.030361392
151	0xbcfee3b8	-0.031114444
152	0x3d0eaf25	0.034835
153	0xbd2e2478	-0.042515248
154	0xbb4dc460	-0.0031397566
155	0x39287dd3	0.00016068602
156	0xbb3daabb	-0.0028940875
157	0x3d251bcc	0.040309712
158	0x3ba60ec1	0.005067677
159	0x3d86c0bf	0.06579732
160	0x3c9beb23	0.01903302
161	0xbce4157d	-0.027842278
162	0x3d3b17fe	0.045677178
163	0x3d6a3f1a	0.057189085
164	0x3db9a37a	0.09064384
165	0xbd988e01	-0.0744896
166	0xbd5d06b2	-0.053961463
167	0x3cafd218	0.021462485
168	0xbdb831a4	-0.08993843
169	0x393ef0a4	0.00018209458
170	0xbb9cea19	-0.004788649
171	0xbd3cb30d	-0.046069194
172	0x3db3ae1b	0.08773442
173	0xbde4ebb5	-0.1117777
174	0xbdabed68	-0.08394891
175	0x3dfba837	0.12287944
176	0xbcd1e747	-0.025622977
177	0xbe3382f6	-0.17530426
178	0x3d21aa44	0.03946902
179	0x3ba84e7a	0.0051363083
180	0xbd23eb59	-0.040019367
181	0x3b17f520	0.0023186877
182	0x3c8a6c3e	0.016897317
183	0xbda66ca8	-0.08126193
184	0xbd8b0381	-0.06787778
185	0xbd165163	-0.03669871
186	0xbd4f5d26	-0.050625943
187	0xbd4a2895	-0.04935511
188	0xbccadd16	-0.024763625
189	0x3dde4a97	0.10854071
190	0xbd619e30	-0.0550825
191	0x3b24d38f	0.0025150513
192	0x3e1a4d1e	0.1506848
193	0x3cf44907	0.029819978
194	0x3e7deb6b	0.24796836
195	0xbf84604e	-1.034189
196	0xbddaf3ef	-0.10691058
197	0x3d4ecc11	0.05048758
198	0xbacd7c45	-0.0015677294
199	0x3e0fd851	0.14047362
200	0x3ec6bdde	0.38816732
201	0x40792139	3.8926528
202	0xbf19b772	-0.6004554
203	0xbe98727a	-0.2977484
204	0xbfb319a1	-1.3992196
205	0x3bdb96e5	0.0067013376
206	0xbd8a9fc5	-0.06768755
207	0xbcd05712	-0.025432143
208	0x3eaf6d7a	0.3426321
209	0xbcc1187e	-0.02357125
210	0x3e2671f9	0.16254415
211	0xbdcc71a2	-0.09982611
212	0x3e6274a9	0.22114815
213	0x3e9e6ff9	0.30944803
214	0xbd348693	-0.044073652
215	0xbddd2dcd	-0.107997514
216	0x3adf4702	0.0017034712
217	0x3f73c3c0	0.95220566
218	0xbd0a912c	-0.033829853
219	0xbb55158d	-0.0032514066
220	0xbe039bbd	-0.12852378
221	0xba2da671	-0.0006624228
222	0xbfb2c96d	-1.396772
223	0xbc5c54df	-0.013447969
224	0x3cf2eaf2	0.029653046
225	0xbc8728d6	-0.016498964
226	0xbfe558d1	-1.791773
227	0x3e45a340	0.19300556
228	0xbfab71de	-1.3394125
229	0xbed511d9	-0.4161518
230	0xbfd4b019	-1.6616241
231	0xbc2a6c17	-0.010401747
232	0x3d61c200	0.055116653
233	0xc0927173	-4.576349
234	0xbbf7d977	-0.0075637656
235	0xbd21eace	-0.039530568
236	0x3d45982c	0.048240826
237	0xbef1bf09	-0.4721606
238	0x3e39cedf	0.18145321
239	0x3db8b9ba	0.090197995
240	0x3ecf2632	0.40458828
241	0x3d25e478	0.040501088
242	0x3b9f0d3d	0.004853873
243	0x3d90e238	0.07074398
244	0x3da265e5	0.07929591
245	0xbe4ffb72	-0.20310763
246	0x3f273c74	0.6532662
247	0x3db02af8	0.08601946
248	0x3e93a4a7	0.28836557
249	0xbe6589d7	-0.22415863
250	0x3fbc953a	1.473304
251	0x3e90d46c	0.28287065
252	0x3e86f323	0.26357374
253	0x3f091dfe	0.5356139
254	0x3ba8b5f5	0.005148644
255	0x3e106806	0.14102182

sequential/dense_2/MatMul f4 [9, 64]
0	0xbe185012	-0.14874294
1	0xbc1f5fd9	-0.009727442
2	0xbcc4673d	-0.02397501
3	0xbf3d0a66	-0.7384399
4	0x3f1be864	0.60901475
5	0xbe086e67	-0.13323365
6	0x3f8f98a6	1.121846
7	0xbd0273b7	-0.031848636
8	0xbe893982	-0.26801687
9	0x3efde617	0.49589607
10	0xbdf9c1a1	-0.12195135
11	0x3b804dba	0.0039155157
12	0x3d768515	0.06018551
13	0xbe90a222	-0.28248698
14	0x3ec075c0	0.37589836
15	0x3cbcc2b8	0.023042068
16	0x3f21a035	0.6313508
17	0xbd285bbf	-0.04110312
18	0xbf68a958	-0.908834
19	0xbd363f0e	-0.044493727
20	0xbda3c0ef	-0.079957835
21	0xbc810ed8	-0.015754148
22	0xbd1923ca	-0.037387647
23	0xc0123ece	-2.2850833
24	0x3cd26cbb	0.025686612
25	0xbecc712f	-0.39930102
26	0x3f94f432	1.1637022
27	0x3e40869b	0.18801348
28	0xbd1777de	-0.03697955
29	0xbf01b24b	-0.5066268
30	0xbfb13cf1	-1.3846723
31	0x3f7e0f81	0.9924241
32	0xbc5b1989	-0.013372787
33	0xbf0f7155	-0.56032306
34	0x3d8a2e2e	0.06747089
35	0x3ca514e6	0.020151567
36	0x3f919e85	1.1376501
37	0x3f94ab1b	1.1614717
38	0x3dab13e9	0.08353407
39	0x3d623eb5	0.055235583
40	0x3c5aeed5	0.013362606
41	0xbd1af31b	-0.0378295
42	0xbf9f8a64	-1.2464108
43	0xbd3fccfa	-0.04682634
44	0x3eeecc76	0.46640366
45	0x3d9d8514	0.07691398
46	0x3cb65d7d	0.022261376
47	0x3e6bbfb0	0.23022342
48	0xbe5b75f5	-0.21431716
49	0x3ee37961	0.44428542
50	0x3d2d470f	0.042304095
51	0x3d11fb8e	0.035640292
52	0xbc7a16fe	-0.015264271
53	0xbd3b1934	-0.045678332
54	0x3dd07b5d	0.1017978
55	0x3d9c56ec	0.076337665
56	0x3cc0634b	0.023484847
57	0xbe6d72e6	-0.23188362
58	0xbc41af29	-0.011821547
59	0xbcdb9d75	-0.02680848
60	0xbd976c01	-0.07393647
61	0x3e82d075	0.25549665
62	0xbbfc624e	-0.0077021485
63	0x3c918f14	0.01776842
64	0x3eac45a4	0.33646882
65	0xbc3b219e	-0.011421589
66	0x3c94e61c	0.018176131
67	0x3ea2f6cf	0.31828925
68	0xbdc132e7	-0.09433537
69	0x3f4546b5	0.77061015
70	0xbf1af791	-0.60534006
71	0xbdaa1d24	-0.083063394
72	0x3f961e1b	1.1727937
73	0x3e03db5b	0.12876646
74	0xbe8a3c6d	-0.26999226
75	0xbcdffcc5	-0.02734221
76	0x3d859f9b	0.06524583
77	0xbef997c2	-0.48748595
78	0x3ed73122	0.42029673
79	0x3d1dba5a	0.038507797
80	0x3d96dcf9	0.07366366
81	0x3d7f2f4d	0.06230097
82	0xbe13e3a8	-0.14442313
83	0xbb13c0c2	-0.0022545313
84	0xbe33f906	-0.17575464
85	0xbd8903cc	-0.06690177
86	0xbdd75073	-0.10513391
87	0xbf0df9fb	-0.55459565
88	0x3d6053c1	0.054767374
89	0xbef4ade2	-0.47788912
90	0xbf80ffbd	-1.0078045
91	0x3ea52fc8	0.32263017
92	0xbdba992f	-0.09111249
93	0xbec30f9d	-0.3809785
94	0x3f05469d	0.5206087
95	0xbf608823	-0.8770773
96	0x3d88aae4	0.0667322
97	0x3f5f1a65	0.8714965
98	0x3b29b860	0.002589725
99	0xbd1a0dfb	-0.03761099
100	0x403be2f4	2.9357271
101	0xbf05324c	-0.5202987
102	0x3e8c8195	0.27442613
103	0xbd14369d	-0.036184896
104	0xbd0d8b98	-0.034556955
105	0x3bc244ee	0.005928627
106	0x3f987232	1.190985
107	0x3d81ca2f	0.063373916
108	0x3f3160e6	0.6928848
109	0x3dacd3ee	0.0843886
110	0xbd85e14e	-0.06537114
111	0x3e6b846f	0.22999738
112	0xbea7f97a	-0.32807523
113	0xbb5d5e11	-0.0033777992
114	0xbcdc6099	-0.02690153
115	0xbdcae34f	-0.09906637
116	0xbd6a8cb4	-0.05726309
117	0x3bff8dc0	0.0077988803
118	0x3e261cad	0.16221876
119	0x3c18af94	0.009319205
120	0xbd836e9a	-0.0641758
121	0x3f39d076	0.7258371
122	0x3c1f4034	0.009719897
123	0xbc2fb1f2	-0.010723578
124	0xbd611f18	-0.054961294
125	0x3eba7f55	0.36425272
126	0xbbd570f1	-0.006513708
127	0x3c3ad582	0.011403443
128	0x3e91aa08	0.28450036
129	0x3cec74a9	0.028864222
130	0xbbb335dd	-0.0054690675
131	0x3e9def90	0.30846834
132	0x3e4f9f58	0.20275629
133	0x3e8d062a	0.27543765
134	0x3d3d6c69	0.046245966
135	0xbd1d0467	-0.038334277
136	0xbe19d559	-0.15022792
137	0x3e405b9f	0.1878495
138	0x3e518cc3	0.20463853
139	0xbd94d19b	-0.072665416
140	0xbd2a2014	-0.0415345
141	0x3d968262	0.07349087
142	0xbe17eac4	-0.1483565
143	0xbcce6e62	-0.025199119
144	0xbdf8a524	-0.12140873
145	0x399fcf43	0.00030481265
146	0xbeb165ef	-0.34648082
147	0x3d24de0c	0.040250823
148	0x3e1db467	0.1540085
149	0xbd99693e	-0.074907765
150	0x3d74904e	0.059707932
151	0xbf036e42	-0.51340115
152	0x3ca37445	0.019952903
153	0x3b09e8fb	0.0021043408
154	0xbee1714a	-0.44031745
155	0x3dd82445	0.10553793
156	0xbdd08832	-0.10182227
157	0xbde34366	-0.110968396
158	0xbce14b6d	-0.027501786
159	0x3e38cebe	0.18047616
160	0x3b947fbf	0.00453183
161	0xbe00f62c	-0.12593907
162	0x3cc5433a	0.024079908
163	0xbcdde655	-0.02708737
164	0x3e1fde2c	0.15612096
165	0xbc31b667	-0.010846711
166	0x3c8c293c	0.017109506
167	0xbc64263f	-0.013925134
168	0xbce46bc2	-0.027883414
169	0xbb52a34a	-0.0032140785
170	0xbe92a0e7	-0.28638384
171	0xbdb44288	-0.08801752
172	0xbdc3d9ad	-0.09563003
173	0x3eaf956b	0.34293684
174	0xbad7ce8f	-0.0016464758
175	0x3e98a4f4	0.2981335
176	0xbd366091	-0.044525687
177	0xbdc5afe7	-0.09652691
178	0xbba61a23	-0.0050690337
179	0x3d704e7e	0.058668606
180	0x3a792080	0.0009503439
181	0x3d394bd6	0.04523834
182	0x3e4ca3cd	0.1998436
183	0xbcf5e711	-0.030017408
184	0xbd3fe9bf	-0.046853777
185	0x3f001057	0.5002493
186	0xbcdcd4eb	-0.026956996
187	0xbcd19c7b	-0.025587311
188	0xbc6bce35	-0.014392425
189	0x3d9d1315	0.07669655
190	0x3d8436f1	0.06455792
191	0xbbd9ffcd	-0.0066528083
192	0x3dd4f3ed	0.10398088
193	0xbb370ce5	-0.002793127
194	0x3bf8c117	0.0075913775
195	0xbf4358ae	-0.7630719
196	0xbe8da11c	-0.2766198
197	0x3ebfdefd	0.37474814
198	0xbf07e15c	-0.53078246
199	0x3cee9026	0.02912147
200	0x3edd1d6f	0.4318652
201	0x3e7f4188	0.24927342
202	0xbd3593b1	-0.044330303
203	0xbd6a89cd	-0.057260323
204	0xbc15af30	-0.009136006
205	0xbeea7dd5	-0.45799127
206	0xbdae3998	-0.08507079
207	0x3cb0de0b	0.021590253
208	0xbe88adda	-0.26695138
209	0x3d4efc9a	0.05053387
210	0xbdb18f4e	-0.08669911
211	0x3bed7189	0.0072462005
212	0xbd9b222b	-0.075748764
213	0x3d210b99	0.0393177
214	0x3da3443b	0.07971998
215	0x40030491	2.0471537
216	0xbcf945bf	-0.030428765
217	0xbedebbd7	-0.43502685
218	0xbf623a61	-0.8837033
219	0x3ca73a00	0.020413399
220	0x3dbe6ca8	0.09298068
221	0xbee9fdce	-0.4570145
222	0x3fb69199	1.4263183
223	0x3d76a61f	0.06021702
224	0xbd6b998d	-0.057519484
225	0xbf2f40fa	-0.6845852
226	0xbd900d91	-0.070338376
227	0xbc86b19f	-0.016442118
228	0x3f990cbb	1.195701
229	0xbf1294a6	-0.5725807
230	0x3ea0ad46	0.31382197
231	0xbd4e9c5a	-0.050442077
232	0xbd2c43a1	-0.042056683
233	0x3d06d87e	0.032921307
234	0xbd2a6a92	-0.04160554
235	0x3ce88162	0.028382007
236	0xbe8b0dae	-0.27158874
237	0x3e0528d2	0.13003853
238	0x3d25ea1b	0.040506463
239	0x3e711609	0.23543562
240	0xbef42c83	-0.4769021
241	0x3e8085a6	0.25101966
242	0xbd23a218	-0.039949507
243	0xbd340984	-0.043954387
244	0x3d658e08	0.056043655
245	0xbb42feab	-0.0029753845
246	0x3e300fe6	0.17193565
247	0xbccc8081	-0.02496362
248	0x3d57b01b	0.05265818
249	0xbe0de958	-0.13858545
250	0x3cf22a7e	0.029561277
251	0xbd7a6f47	-0.06114128
252	0x3bb87236	0.0056288494
253	0xbc66d9b6	-0.014089992
254	0xbd94d956	-0.07268016
255	0x3d0031db	0.031297546
