application/app/src/main/assets/model_oppo_a36.tflite (tflite, 22396 bytes, 6 tensors)

sequential/dense_1/BiasAdd/ReadVariableOp f4 [64]
00000000: 0000 0000 c179 44bb 0000 0000 60e5 563d
00000010: 4611 1ebd 786d 893d b445 de3d 78ab 09bc
00000020: 8f0f 843e 0000 0000 1729 8cbc 1ee3 7abb
00000030: 7e98 0b3e 918d 62bc bfd7 aabb 4af6 a7bd
00000040: 0000 0000 ea82 ae3c 1acb dd3c ab5c 853c
00000050: 0000 0000 48ad 603d cad5 edbd eed1 a73d
00000060: d9d2 1bbc da40 833e cf2b 033e ece1 b5bc
00000070: ceb9 f7bc f393 b73e f63a b7bc 0000 0000
00000080: b6b4 c8bd 0000 0000 2cb5 17be ddb1 87bc
00000090: 0000 0000 42f1 563d 3d45 1dbd df0b a63e
000000a0: ba5c 1c3e 0fca adbc 126f aebc 1963 1e3e
000000b0: e385 61bd 7330 47bc 6b20 15bc 18cb a2bb
000000c0: 1f8e 153e 8e6a 1c3d e4f8 883c e3e9 fc3d
000000d0: ddb0 903e 3cb6 e4bc ba80 0dbc e9b8 623d
000000e0: 48df 3dbd b6b8 2dbe ddb7 2e3d 41c1 19bd
000000f0: 2467 d5bb 3ab5 b83d 980c 5cbc 9c7d ca3d
0.0 -0.0029979798 0.0 0.052464843 -0.038590692 0.06710333 0.108531386 -0.008402698
0.2579312 0.0 -0.017109437 -0.0038282345 0.1363239 -0.013827697 -0.005213707 -0.08201273
0.0 0.021302659 0.027074385 0.01627954 0.0 0.054852754 -0.11613043 0.08194338
-0.009510719 0.25635415 0.1280968 -0.022202455 -0.030239966 0.35855064 -0.022366982 0.0
-0.09800093 0.0 -0.14815205 -0.016564304 0.0 0.052476175 -0.03839611 0.32430932
0.15269747 -0.021214513 -0.021293197 0.1546749 -0.055059325 -0.012157547 -0.009101967 -0.0049680583
0.14604996 0.038187556 0.016720243 0.12349298 0.28259936 -0.027918927 -0.008636648 0.055352125
-0.046355516 -0.16964993 0.042655814 -0.037537817 -0.0065125395 0.09018941 -0.013430737 0.09887239

sequential/dense_2/BiasAdd/ReadVariableOp f4 [9]
00000000: d6f8 5dbe 6bb7 de3d c6e5 813d 91e5 343e
00000010: 4902 b73d d753 8c3e 0f12 de3d 86d0 9e3e
00000020: 2583 4a3e
-0.21676955 0.10874828 0.06342654 0.17665698 0.08935983 0.27407715 0.10843288 0.31018466
0.1977659

sequential/dense/BiasAdd/ReadVariableOp f4 [64]
00000000: 772a 683e e46a 96be 19bd c33e 0000 0000
00000010: 1bb2 afbc 0000 0000 d5d8 91bb 0000 0000
00000020: 04a0 bbbd 15e3 b83e 3a50 a13d abb3 74be
00000030: 50f8 b93e 6e96 fb3e 0a31 8dbd 905a e03e
00000040: 7fd4 29be 0000 0000 fbf5 95bd a27c d33d
00000050: 5093 b43d c432 64bd 5269 05be 9de2 9f39
00000060: 758a d23e 0000 0000 07b0 dbbd c40b 0abe
00000070: f64e a13e 9a41 a93c 00d4 be3d ea77 8bbe
00000080: f6b6 533e 9472 4a3e 0000 0000 8f27 843e
00000090: b262 063f 44ab 7dbb a7e0 8a3e 0000 0000
000000a0: f367 bdbd bad3 b2bb d474 cc3e 56c5 673e
000000b0: 8e73 133e 6b50 543b 040a 44bc 883d fabd
000000c0: 64e4 4abd 702e 88be a5b7 07bc fcc8 be3e
000000d0: c69b ecbc 05d7 4d3e 0000 0000 c31e 5ebc
000000e0: 9b16 ffbd 2298 76bd 0a22 a6ba 0000 0000
000000f0: 0000 0000 2961 cabd 0000 0000 1db3 8fbe
0.22672449 -0.29378426 0.38230208 0.0 -0.021447232 0.0 -0.004450897 0.0
-0.0916138 0.3611075 0.0787663 -0.23896663 0.3632226 0.49138206 -0.06894119 0.43819094
-0.16584967 0.0 -0.07322308 0.10326506 0.0881716 -0.055712476 -0.13028458 0.00030495683
0.4112126 0.0 -0.10726934 -0.1348105 0.31505555 0.020661164 0.093177795 -0.27239925
0.20675263 0.1977027 0.0 0.2581143 0.5249435 -0.0038706819 0.2712452 0.0
-0.09248342 -0.0054573687 0.39932883 0.22633871 0.1439955 0.0032396566 -0.011965279 -0.122187674
-0.049534217 -0.2659793 -0.00828353 0.37262714 -0.028882872 0.20101555 0.0 -0.013557139
-0.124554835 -0.06020368 -0.0012674939 0.0 0.0 -0.09881813 0.0 -0.2806634

sequential/dense/MatMul f4 [64, 5]
00000000: b836 41bf f6b4 cc3d 94ec d43d 968d 573e
00000010: 1741 003f ac95 cc3d 3d4a 42bd b55c db3e
00000020: 486c 36be 5a1d 353f 9a8a a63c ea1d 2b3d
00000030: 213b 333d 68b4 41bf 3909 79bd 9bb9 35bd
00000040: 2769 dbbb 37d8 3fbd fb9e 903c 5b34 7f39
00000050: cdd6 70bd 616d 6c3d 96d4 eabb 2c62 19bc
00000060: 4db1 5ebc ab6e f33c 45c6 4ebd 5033 5eba
00000070: db80 a6bd 7b43 aa3c c1da 733e 5528 03bf
00000080: 5de3 043f b895 85be 1801 c63c 23ff 84bd
00000090: e789 3dbd 973b 65bd 8749 71bd 48b3 07bb
000000a0: 636d 2c3f a142 ed3b dff7 3fbe 18db 96be
000000b0: 9733 013f 4dbc fc3c 6849 f23d ccfe b13b
000000c0: d1d4 49bf e619 a1bd 81fb 86bc fed1 fc3d
000000d0: 6aec 5b3e d942 68bf 57c1 743e 6eae ce3a
000000e0: 4b29 13be 66e2 d13e a64b 683d 1f61 083f
000000f0: 842e e0bd 90e3 973e d566 29be 7ec9 36bf
00000100: 1cf8 ff3d 66a0 0b3e 5aee 3bbe 405e 8fbd
00000110: 73b0 11bf 5244 95bd dedc 21be 1360 19be
00000120: 9494 e53e d94b 6bbd 329b 263f ac6e dabb
00000130: cb5d e93b 5476 f83b 0ba8 51bf e7e7 233e
00000140: a812 8ebe 3eac cb3e 2e8b 073f 5725 dabe
00000150: 2895 ca3e 1704 8bbc f3f9 5bbd 84cb 8bbb
00000160: 7a77 b6bd db3f 98bc 4a2a 733e fb13 6a3e
00000170: d78e db3d ac77 b83e d79c e03d fa46 a93b
00000180: 9b60 cd3d 785d 703e 86a2 7abf ec81 963e
00000190: 6b79 963e 1ce6 5abf 7d33 c3bd 290e c83e
000001a0: e926 3b3f 9a48 85be 35ac f63d 1360 c93e
000001b0: 8414 43be c59c 183f 7d91 7d3e ccdf 0c3f
000001c0: 438c 033e 2861 00bf 87c7 e1be 6f0a 49be
000001d0: cb19 30be 92b3 c93e f95b 2fbc bc7c d63e
000001e0: 0dc8 48bc f4dd 2b3c 59ec 703c 428a 53bf
000001f0: 2549 633e e869 113d 079b 1cbd ddf3 4bbd
00000200: c7d6 cc3b d306 653c d997 ba3d 5f1e 26bb
00000210: 7a57 04bc d250 923e e764 a73e 9ed7 243c
00000220: 3c28 3abe 5a75 ad3e 31ba d6bb 1762 683f
00000230: 32ae 9b3e e8b7 0a3f 56ef a4bd 6d1f e53d
00000240: 6d0f aebe 8a30 c33d de8a 843e da1c 00be
00000250: c7d8 ec3d 2661 393d 2c42 373e 3b7c 18be
00000260: e26c 04bf a112 963e 902b 8e3f b5ae a63d
00000270: 1517 983d 6ef1 8bbd 8e15 f73e 1e16 88be
00000280: 85dd d3be 39bd adbe 7a16 9bbd df9f 033f
00000290: 06ef 0d3f 9c06 253d 2d6b 4cbe d6a8 843e
000002a0: f336 55be 38e9 1abf 1a8b 903d c7fb e4bd
000002b0: 2d04 35bd f7b8 bfbd 595a c1bc 0724 003f
000002c0: 730f fb3e 5815 3fbe f305 b53e 988f 14be
000002d0: dce7 0ebe 9b59 493d e491 8dbd ae00 19bf
000002e0: ecc2 793e 1b48 e3bd 9ffe 69bd c6fa e43d
000002f0: 1b24 1dbd b5da 7ebd 639c 053e cd56 893e
00000300: 6501 64be e15f e1bd 5a34 bbbe 284d 2b3b
00000310: d096 60bd 5dbd f93b 3363 293c 7b19 74bd
00000320: 5b9c 84be 336f 08be 555c bd3e 7907 fd3d
00000330: 56ba 0e3f d03b f43a fd17 123c bde1 b0bd
00000340: b0b5 273d a887 07bd 0e54 373c 91f4 f93c
00000350: d38e a83d 6c76 5cbf fce0 6f3d a8f3 15be
00000360: 5b4d 1b3f ec1d c0be b236 82bd fb1a bd3c
00000370: 658b d3be 0de6 823d ce66 e93e 5282 67be
00000380: 9ccd 273e 7fc1 aa3e fe42 9bbe 2487 fd3e
00000390: 854c e1be d3b2 3abe 0c5c 933c 5959 5abc
000003a0: fabf 3d3c aee1 8ebc 2460 83bd 0d5a 353b
000003b0: 73b5 97be 3250 e63e 28ba 9abd 5b0a 973e
000003c0: 41d9 0e3f accf 2cbf 5cc6 493e 840c e4bd
000003d0: 288b 9c3e 8d24 0abe b04c fd3d 09aa 013f
000003e0: 9f0e 53be 6174 bd3e bd6f a0be 298d d1bc
000003f0: b735 d63e 3766 7cbd d848 123f 59e3 8e3b
-0.7547412 0.09995453 0.10396686 0.21050104 0.5009932 0.09989485 -0.04743408 0.42844167
-0.17814744 0.7074791 0.020329762 0.041776575 0.04375756 -0.75665903 -0.06079981 -0.04436646
-0.0066958847 -0.046837058 0.017653933 0.00024338199 -0.0587986 0.0577215 -0.0071664555 -0.009361785
-0.0135920765 0.029715857 -0.050482053 -0.0008476274 -0.08130046 0.02078413 0.23813917 -0.51233417
0.5190943 -0.2609079 0.024170443 -0.06493976 -0.046274092 -0.055965032 -0.05890801 -0.0020706225
0.6735441 0.007240609 -0.18746899 -0.2946403 0.50469345 0.030851508 0.118304074 0.0054319855
-0.7884036 -0.07866268 -0.016477348 0.1234474 0.21476904 -0.90727 0.23901878 0.0015768537
-0.14371221 0.4099304 0.05671277 0.53273195 -0.10946372 0.29665804 -0.16543134 -0.714012
0.12498495 0.13635406 -0.18352643 -0.07000399 -0.56909865 -0.07288422 -0.1580691 -0.14978056
0.4483992 -0.05744538 0.6508056 -0.006666025 0.0071217767 0.007582465 -0.8189704 0.16006432
-0.2774861 0.39779848 0.52946746 -0.42606613 0.39566922 -0.016969724 -0.053705167 -0.0042662043
-0.08909507 -0.018585136 0.23746601 0.22859184 0.10720604 0.36028802 0.10967415 0.005165932
0.10028192 0.23473155 -0.9790424 0.29395998 0.2938951 -0.8550737 -0.09531305 0.39073303
0.7310625 -0.26031953 0.12044565 0.3933111 -0.19050795 0.5961421 0.2476253 0.55028987
0.12846474 -0.5014825 -0.4409754 -0.19632886 -0.17197339 0.39394814 -0.01070308 0.4189204
-0.012254727 0.0104899295 0.014704787 -0.8263284 0.22195871 0.03550139 -0.038233783 -0.049793113
0.0062511894 0.013978678 0.09110994 -0.0025347692 -0.008077497 0.28577286 0.3269417 0.010061173
-0.1817941 0.33878595 -0.0065529575 0.90774673 0.30406338 0.5418687 -0.08053462 0.111876346
-0.33996144 0.095307425 0.25887197 -0.12511006 0.115647845 0.045258664 0.17896336 -0.1489114
-0.5172864 0.29311088 1.1107044 0.081387915 0.074262775 -0.068331584 0.48258632 -0.26579374
-0.41379943 -0.33933428 -0.075726464 0.5141582 0.55442846 0.040289506 -0.1996276 0.25910062
-0.20821743 -0.60512114 0.070577815 -0.11180835 -0.044193435 -0.09361451 -0.023602651 0.50054973
0.49035224 -0.18660486 0.353561 -0.14507902 -0.13955635 0.04915772 -0.06912592 -0.5976666
0.24390763 -0.110977374 -0.05712759 0.11180644 -0.03836451 -0.062220294 0.13047938 0.26824036
-0.22266157 -0.110046156 -0.3656338 0.0026138518 -0.054831326 0.007621451 0.010338592 -0.059594613
-0.2590054 -0.13323669 0.36984506 0.12354941 0.55753076 0.0018633548 0.008916852 -0.08636806
0.040944755 -0.033088356 0.011189474 0.030512126 0.082303666 -0.861182 0.05856417 -0.14643729
0.6066491 -0.3752283 -0.063580886 0.023084154 -0.41317287 0.06391535 0.45586246 -0.22608307
0.16387028 0.3335075 -0.30324548 0.49517167 -0.44003692 -0.18232279 0.017988227 -0.013326966
0.011581415 -0.017441597 -0.06414822 0.0027672083 -0.29630622 0.4498306 -0.07555038 0.29500088
0.55800253 -0.6750438 0.19704574 -0.111352 0.30574918 -0.13490506 0.123681426 0.5065008
-0.20611046 0.37002853 -0.3133525 -0.025580006 0.41837856 -0.061620917 0.571424 0.004360598

sequential/dense_1/MatMul f4 [64, 64]
00000000: 6005 6e3d 957b e4bc 4fdd 80bc 05a2 d0bd
00000010: a8a9 5abd 9048 93bd 27ce 28bd 3304 d0bc
00000020: bf83 563c 6ff7 10bc a390 8cbd d2a6 a0bd
00000030: 32de 71bc 91ae 823d 8196 1fbd 1b1e 4dba
00000040: b8d1 0d3d 7dae 873c 675d 21ba cf3e bdbd
00000050: 8bc8 88bd 9325 67bc daba 8ebd cd14 073e
00000060: 1b9c f53c 9b53 2ebc 5c94 49bc c339 623c
00000070: d785 6ebc 423a 65bc 45e9 6bbd 8b3d cb3c
00000080: 8b33 06bd 04c3 11bc 6e10 9a3c c259 64bd
00000090: d032 5cbc 53a6 a33c 049b bebc 552e 2cbd
000000a0: a8cc bf3c 56e6 223d 1d6e abbd a2fb bdbb
000000b0: 159d 603c 4870 5cbd 5e0a 8bbd 1146 933c
000000c0: e5b3 973c a36b f9bc 6d3b d4bc 13d9 76bd
000000d0: 8629 abbc f52f 1d3d bdee 91bd 8745 b4bd
000000e0: 0712 c43d 33c6 683b e0d8 56bc 536a b9bc
000000f0: cff1 393c 38cd 4fbd b66d 8b3d 1e7e b43c
00000100: 2135 d0bc b5b2 9c3d 70a8 aa3d 7ec1 c7bc
00000110: c5f1 0dbc b53e e4b9 ebbc b33d 1940 0c3c
00000120: 5d18 68bd 8be9 193d 4b78 8739 0d41 7cbc
00000130: 9402 3a3c 9906 1ebc 4695 22bd 5817 603c
00000140: 9e4d 53bc 353a 0e3d 6719 e1bc 263f 4a3d
00000150: 0870 85bc 3e38 943c 548c 21bd c53f 12bc
00000160: 5622 94bd d850 82bd 0e25 a5bd 4538 843d
00000170: 84bb 533d ebe1 64bd fa29 553d 940e b3bd
00000180: 9f3e dfbd 3d14 8a3b ab7b 0cbe 6bec 8f3b
00000190: 2660 d9bd da68 31bd 3ac8 aabc 042e 073c
000001a0: a231 51bd 102e 813c e358 d13c 9e5f 55bb
000001b0: 7972 05be 6c69 b4bd 0b42 05bc 8e6f 84bd
000001c0: d198 f1bc 4114 9c3d 9614 6d3c 80cd 003c
000001d0: 5f1a 34bb 8d66 5fbd b473 4b3d 81ba 183d
000001e0: 27ff 83bc 6b0c 23bd e242 03bc 2a69 dc3c
000001f0: 2a78 d8ba edaa 013d a18a c7bc bc1c 093d
00000200: c501 94bd 4f88 ab3c 8770 bebc 3961 ae3c
00000210: 6fb5 fabc 995a 8d3d 65b4 8fbd ad0e 48bc
00000220: 9f47 ffbd b744 91bd 4e09 c53c 95de 31bc
00000230: 6b44 62bc a203 babd 4f97 da3a 35a1 ffba
00000240: 67fc 84bd c6c7 a4bd 2f78 e3bb fba3 6b3d
00000250: 7259 a0bb 20dc 07bd 5a92 243d 5f9b b5bc
00000260: 0b1a 8a3d 2c74 c63c 5870 66bd 035b 1dbd
00000270: 8200 afbc 6373 00bc dd4b 10bd 9007 cabb
00000280: a3ce 87bc cadf 3d3d 536e 99bb 126c 55bd
00000290: 7eab a13c 329a 59bd 73e2 7ab9 1e65 bd3c
000002a0: f6be 203d f0d0 81bd 0fe9 0c3c 5985 053c
000002b0: 0711 b93d 388c fbbc f7dd 25bd 090f 28bd
000002c0: ead4 c03c df53 553d 934c 46bd 8f34 2cbc
000002d0: ffd2 88bd 0fb3 5cbd 1b53 babc f80d f73c
000002e0: 4a8d 533c fd55 77bb 3216 023d fde2 96bd
000002f0: 580c 76bd 1521 af3d 999f a93c 54c0 0abd
00000300: 9e0d 3dbf b73b d0ba f948 2d3f 650f 6fbd
00000310: e557 4dbd 5b12 763d 8d60 25bf ed8f 853b
00000320: 3d23 b5be 37e0 2b3f fc0f d8be 77a4 823e
00000330: 6a7f 3e3f fb47 c9bd fcfd 6b3e fe8b 483f
00000340: e002 4bbd e04e 81bc e38f d4bd f654 58bf
00000350: ffb6 2e3e f5ed 0b3e c0e2 84be 722b 6c3e
00000360: 2c5c 2b3f 2f5c bebd 7993 ac3d b94f b93d
00000370: f73e f6bb 4840 cbbd 05ad 62be d290 303f
00000380: 57c9 783e 18ef 8c3e 8770 ab3d 9229 f9bb
00000390: 7869 acbe 8c02 50bd 4a83 51bd d14e 43bd
000003a0: eb69 7f3e e7f0 31bc d1ea 313f 875a c9be
000003b0: 8f5c 363e c3c7 97bb 16cd 4bbd 42ab 99bd
000003c0: 6867 d23e d9e5 e13d c725 013e 81a9 1f3f
000003d0: 3cdf e8bb b3d8 b5bd cdad 7f3d 510e c53d
000003e0: 3a03 fcbc 8524 15be 3a23 e3bb bbff 583d
000003f0: 9322 0c3d 7e40 513e da17 61bc f65f 4d3f
0.058110595 -0.02789096 -0.015730528 -0.10187153 -0.053384453 -0.071915746 -0.041212227 -0.025392627
0.013092934 -0.008848055 -0.06863525 -0.078443184 -0.014762448 0.06380952 -0.03896189 -0.00078246155
0.03462383 0.016562695 -0.00061555806 -0.092404954 -0.066788755 -0.0141080795 -0.06969233 0.13191529
0.029981663 -0.01064005 -0.012303438 0.013807717 -0.014558277 -0.0139909405 -0.05759551 0.02480962
-0.032764 -0.008896593 0.018806662 -0.055749662 -0.013439849 0.01997677 -0.023267277 -0.042036373
0.023413017 0.039770447 -0.08370612 -0.0057978192 0.013709326 -0.053818017 -0.06789087 0.017977746
0.018518398 -0.030446833 -0.025907243 -0.06026561 -0.020893823 0.038375814 -0.07125614 -0.08802324
0.09573751 0.0035518527 -0.0131132305 -0.022633707 0.011349156 -0.05073282 0.06808035 0.022032794
-0.025415959 0.07651273 0.08332908 -0.024384256 -0.008663599 -0.0004353427 0.087762676 0.008560204
-0.05666386 0.03757624 0.00025838832 -0.015396369 0.011353154 -0.009645128 -0.03969314 0.013677441
-0.012896923 0.03472348 -0.027477933 0.04937663 -0.016288772 0.018093225 -0.039440468 -0.008926337
-0.072331116 -0.06363076 -0.08063708 0.06456045 0.0516925 -0.055879515 0.052041985 -0.08743015
-0.10900616 0.0042138384 -0.1371905 0.004392197 -0.10614042 -0.043312885 -0.020847429 0.008250717
-0.051072724 0.015769035 0.02555508 -0.0032558213 -0.13031949 -0.0880917 -0.008133422 -0.0646659
-0.029491814 0.076210506 0.01447024 0.007861495 -0.0027481539 -0.05454116 0.04967089 0.03728724
-0.016112877 -0.039806765 -0.008011552 0.026905615 -0.0016515304 0.03165715 -0.024358096 0.03347467
-0.072269 0.02093902 -0.023247017 0.021286594 -0.030604092 0.06902046 -0.070168294 -0.01221053
-0.124648325 -0.070931844 0.024052288 -0.01085629 -0.013810257 -0.09082724 0.0016677174 -0.0019503
-0.064934544 -0.08045916 -0.0069418172 0.05752943 -0.004893475 -0.033168912 0.040178634 -0.022168813
0.067432486 0.024225317 -0.056259483 -0.038416874 -0.021362547 -0.00784001 -0.0352286 -0.0061654523
-0.016578024 0.046356 -0.004682341 -0.052105017 0.019735094 -0.053125568 -0.00023926217 0.023119505
0.039244615 -0.0633868 0.008600487 0.008149468 0.09036451 -0.03070651 -0.040494885 -0.041029964
0.023539025 0.05208194 -0.04841287 -0.010510578 -0.06680869 -0.0538817 -0.022744706 0.030158028
0.012912104 -0.0037740462 0.03175945 -0.07367513 -0.060070366 0.08551232 0.020705985 -0.033874825
-0.73848903 -0.0015886937 0.6768947 -0.05836429 -0.05013265 0.0600761 -0.6460045 0.004075995
-0.35378447 0.67139 -0.42199695 0.25516102 0.7441317 -0.09828182 0.23046106 0.7833861
-0.04956329 -0.01578468 -0.10379007 -0.8450464 0.17061995 0.13664992 -0.25954247 0.23063448
0.6693752 -0.092949264 0.08426566 0.09048409 -0.00751483 -0.0992437 -0.22136314 0.6897098
0.24295555 0.27526164 0.08371072 -0.0076038325 -0.33674216 -0.05078368 -0.051150598 -0.047682587
0.24942748 -0.010860658 0.69498926 -0.3932688 0.17808746 -0.0046319677 -0.049756132 -0.07503368
0.41094518 0.11030168 0.12612067 0.6236802 -0.0071066897 -0.08879223 0.06242161 0.09621871
-0.030763257 -0.14564712 -0.0069316896 0.05297826 0.03421266 0.20434758 -0.013738597 0.8022455

sequential/dense_2/MatMul f4 [9, 64]
00000000: 161e 003c 5671 b4bd 4764 05bd 67c2 cabd
00000010: 0dc4 8a3e b8bd 1e3d 5355 67be 7988 943d
00000020: 78b2 3b3f 8802 5fbc cbec 023d d864 363e
00000030: 031a b63d db82 7f3d 70bc dd3c 163b fd3e
00000040: f334 ac3d a476 d33e 9fe8 0f3e 415c bfbe
00000050: d568 ecba 2147 143e fa7f 1c3f 8001 6c3e
00000060: d925 3dbd be18 09c0 c42c 0abe 13c8 14bd
00000070: 1d5b 8c3f 3d8e 96bf e075 983c c1c3 933d
00000080: 1c96 c4bf 77c2 e83d a4c8 ee3e 87f7 55bd
00000090: 18ea ca3c abc4 643f 6fcc e63e e537 05c0
000000a0: 37d1 9ebb 4a20 3d3d 57cb 1b3d 96a8 7dbc
000000b0: d721 cc3e 1680 b8bc 9445 4dbc 4e9e bbbc
000000c0: 63e1 b0be b639 ecbc 916b 413e b53d 873e
000000d0: ecae 2fbe 3c88 12bd ca90 0bbc 44e3 1d3e
000000e0: cc41 0a3f 9082 cfbe 6a8d 173e c414 003f
000000f0: 826b c1bc 08ec e73f 3b90 83bd 5b0f 0f3c
00000100: 8be3 8fbd 0467 fe3c 4446 87bd 456b 07bd
00000110: 47e6 ec3d fa89 f33e a32c d43d c8ae 92bd
00000120: 5124 493c f8fe 613c c6d4 dabb ba19 223e
00000130: f0a2 d33e 80a3 e13b 13b3 69bd f32c 11bd
00000140: 1302 c73c cc51 083e 51ad ec3d c127 e5bd
00000150: baef 5c3d 6fd8 553e 0f9f 84be dfe7 263d
00000160: ed2e abbd 9e39 033f 49eb ff3e cb69 a3bd
00000170: 4045 973d 689c 913e 0682 1cbe 62dc fabc
00000180: 16f8 90bd 855c baba 947e 903e de29 15bd
00000190: 2aa7 d53d 2dc3 4dbd 2bee 9c3e 6b7e 97be
000001a0: 663e 943e 0891 babb aa34 3a3c 3e26 273e
000001b0: 5632 683e 3029 05be 5d2b 57bc 6337 4a3c
000001c0: c739 c7be 2e5b c63d a42b 493e 7564 883e
000001d0: 75b8 383e 72a1 703d 9b9f de3a 5100 a43e
000001e0: 6ef4 243e 29f8 c5be e1af db3e fb55 9cbb
000001f0: eb16 5c3b 4112 a1be a11a 973b 9c9f 693d
00000200: 788b 3e3d 9fd4 7ebc 04f1 a23b 9fe2 e33e
00000210: a363 ef3b 93a7 d93d bfc6 683f 8417 a2bc
00000220: e950 933e 9c64 913c 7745 53bd ac7c 613e
00000230: 83ed 9fbd b3a6 8c3d 4127 f9bc a69a 013e
00000240: e32c 083d af92 963c 1686 5e3e 67ba 43be
00000250: e691 0d3c 2020 3f3e 8853 2e3f 9834 86be
00000260: 0e26 f0bb 3c93 ae3d d27a 993d 9162 84bd
00000270: 6bf7 6fbe 2658 0c3f 3ccd f43b 3f99 7bbc
00000280: 75df e4bd 0b12 c1bc 8896 853e b884 6d3d
00000290: 2845 96bd a52d 24bf f849 dc3d ffb0 bebe
000002a0: d0d0 a03d b39e 3bbd 2b8e 1ebd 1ad3 503d
000002b0: 3d81 223e 8060 ecbb 9c01 34be 9a0e 4ebc
000002c0: 2e32 eebe 0bd5 473d 86e8 453e cfe6 54bf
000002d0: e471 e43e 6f69 533d d681 23bb 043a 0b3d
000002e0: c6bf d83e 148a 4ebf c9b2 adbd d1d0 893d
000002f0: 64e9 12bd 1416 ef3e c893 babb 5058 c23e
00000300: 67e3 8e3d 6873 6a3d 163d 353d 6d77 613d
00000310: b9aa 28bf c914 05bf 01ba 453e 9930 0b3d
00000320: 13aa d63e 3f41 adbc d01c 55bd b4d1 1fb9
00000330: b965 0d3f d37d 90bc 7aa5 02bd a20f 793e
00000340: 1f2f 8f3d 3263 afbb 3623 7e3e 6f12 00bf
00000350: c875 ffbc 0717 c83e 65d2 bbbd 7d22 1a3f
00000360: d022 edbc 6939 33bf 4fdd 173f 4a5a 6a3d
00000370: ea8b b03d eb10 403e fae4 39bd 50ca 24bd
00000380: fe93 84bc 2083 cabc 9433 24be a193 a4bd
00000390: 2cd8 83bd b74e 86bb 3e9f d93d 1044 2abf
000003a0: 2c50 aa3e b36e babc 5410 de3c a2a0 7d3e
000003b0: dbc6 fc3d 91a5 4e3d 4965 af3d a894 fcbc
000003c0: aaf8 86be 2cc5 a53e cf70 1ebd bc61 5abe
000003d0: d83a b9bd 2f38 aebd d575 013d b0f0 373e
000003e0: 3a58 8cbd 65bb 5fbe 8225 a93e 7ab9 763e
000003f0: 9bb7 1cbd 0019 983e dd8e 01bd e140 083e
0.007819673 -0.088106796 -0.032566335 -0.099003606 0.271027 0.03875515 -0.22591142 0.072525926
0.73319197 -0.013611443 0.031964105 0.17811906 0.0889168 0.062380653 0.027067393 0.49459141
0.08408537 0.41301453 0.14053582 -0.37375072 -0.0018036613 0.14480259 0.61132777 0.23047447
-0.046178672 -2.1421351 -0.13493639 -0.03632362 1.0965306 -1.1762158 0.018610895 0.072150715
-1.535831 0.11365216 0.46637452 -0.052238014 0.024769828 0.8936259 0.45077845 -2.0815365
-0.0048467177 0.04617337 0.038035717 -0.015482089 0.39869568 -0.022522014 -0.012528796 -0.022902634
-0.34546956 -0.028836112 0.1888869 0.26414266 -0.17156571 -0.035774454 -0.008518407 0.15418726
0.5400665 -0.405293 0.14800039 0.50031686 -0.023610834 1.8118906 -0.06423994 0.008731688
-0.07025822 0.031054981 -0.06605199 -0.033061285 0.115673594 0.47566205 0.10360076 -0.07162243
0.012276725 0.013793699 -0.0066781966 0.15830126 0.4133525 0.006885946 -0.057055544 -0.035443258
0.024292981 0.13312453 0.11556495 -0.11189223 0.05393956 0.20883344 -0.25902602 0.040748473
-0.0835856 0.5125979 0.49984196 -0.07979163 0.07386255 0.2843964 -0.15283975 -0.030622665
-0.07078569 -0.0014218247 0.2822157 -0.03641688 0.10432275 -0.050234962 0.30650458 -0.29588637
0.28953856 -0.0056935586 0.011365095 0.16323182 0.22675452 -0.13003993 -0.013132897 0.012342307
-0.38911268 0.0968536 0.19645554 0.26639143 0.18039115 0.058747716 0.0016984822 0.3203149
0.16108868 -0.38665894 0.42907622 -0.004770992 0.0033582996 -0.3145924 0.0046113287 0.05703698
0.046519727 -0.0155536225 0.004972579 0.44508836 0.007305579 0.10627665 0.9092826 -0.019786604
0.28772667 0.01774817 -0.05157992 0.22020215 -0.07808974 0.06867733 -0.030414226 0.1265665
0.033245932 0.018380491 0.21730837 -0.19114076 0.008640742 0.18664598 0.6809621 -0.26212
-0.007328755 0.085241765 0.07494129 -0.064641126 -0.23434226 0.54822004 0.007470755 -0.015356361
-0.111754335 -0.023568174 0.2609141 0.0579879 -0.07337409 -0.6413215 0.10756296 -0.37244412
0.07852328 -0.045805644 -0.0387098 0.050982572 0.15869613 -0.007213652 -0.17578739 -0.0125767235
-0.4652266 0.048787158 0.19326982 -0.83164686 0.44618142 0.05161422 -0.0024949214 0.033990875
0.42333812 -0.8067944 -0.08481366 0.06729282 -0.03586711 0.46696532 -0.0056938864 0.37958002
0.06976967 0.057238966 0.04424771 0.055045534 -0.658855 -0.5198484 0.19309236 0.033981893
0.4192663 -0.021149276 -0.05202943 -0.00015241542 0.5523334 -0.017638123 -0.031896092 0.2432237
0.069914095 -0.005352401 0.2481812 -0.5002813 -0.031184092 0.39080068 -0.09170989 0.60208875
-0.028947264 -0.70009476 0.59322065 0.057215013 0.086204365 0.18756454 -0.045384385 -0.040232003
-0.01618385 -0.024720728 -0.160353 -0.080359705 -0.06437716 -0.004098739 0.10626076 -0.66510105
0.3326429 -0.022757864 0.027107395 0.24768308 0.12342616 0.050450865 0.085642405 -0.030832604
-0.2636159 0.32376993 -0.0386818 -0.21326345 -0.09044427 -0.0850681 0.031606514 0.17962909
-0.068527654 -0.21848829 0.3303643 0.24094191 -0.038261037 0.29706573 -0.031630386 0.13306
