application/app/src/main/assets/model_oneplus9pro.tflite (tflite, 27332 bytes, 6 tensors)

sequential/dense_1/BiasAdd/ReadVariableOp f4 [64]
000000 d1 3a 88 3d 4a f7 33 bd fb 32 a2 bc b2 be 0b 3e
       0.06651843 -0.043937005 -0.0197997 0.13646963
000010 64 c1 00 bf 5f f6 7e bd ab 35 f5 3b 0f 65 e1 bd
       -0.5029509 -0.062246677 0.0074832044 -0.110056035
000020 ec 2b b7 be d7 45 eb bc f7 ea c5 bc 41 f7 28 bc
       -0.35775697 -0.028719826 -0.024159892 -0.010312856
000030 74 eb 25 be 0c 22 5f bc 35 44 cc bb 79 c1 a4 bc
       -0.162031 -0.013618957 -0.006233717 -0.020111786
000040 fa 62 0a bf 07 5a f9 bc aa 1a 85 bc 2a ec 37 be
       -0.54057276 -0.030438436 -0.016248066 -0.17961183
000050 83 de 0f bf e5 d1 c5 bc aa a5 49 bc 83 3c fb bc
       -0.561989 -0.024147937 -0.012307564 -0.030668503
000060 c9 4c 1b 3d 17 00 ff bb 7f b7 12 3e 90 b5 12 3d
       0.037915025 -0.007781993 0.1432781 0.035817683
000070 2d d8 bb bc 31 00 55 bc fa 0c 28 bc 28 c4 95 be
       -0.02293023 -0.013000534 -0.010257 -0.29251218
000080 85 02 a2 bc 49 3f 8f be 00 00 00 00 96 32 3e bc
       -0.019776592 -0.2797797 0.0 -0.01160874
000090 44 11 e5 bd 17 78 23 be 6c ab 7a bd 7a d0 82 bb
       -0.11184934 -0.1596378 -0.061198637 -0.0039921375
0000a0 56 5f 50 bc 50 d2 db bc d9 d6 63 be 73 5f ce 3d
       -0.012718042 -0.026833683 -0.22249927 0.10076799
0000b0 fb b9 c5 bc 28 f7 43 bc 00 00 00 00 00 00 00 00
       -0.024136534 -0.011960782 0.0 0.0
0000c0 68 02 6f bc c5 73 d0 bd 8f b3 00 bf b0 fb cc bc
       -0.014587976 -0.10178331 -0.50273985 -0.025022358
0000d0 f1 42 bb be 00 00 00 00 87 0f aa bc 00 00 00 00
       -0.3657451 0.0 -0.020759357 0.0
0000e0 7e 2d b9 3e dc 8b c0 bb a6 03 b9 3c 61 83 02 3e
       0.3616752 -0.0058760475 0.022584748 0.1274543
0000f0 1a a3 3f bf d0 1a 11 bd 0b 6a c1 bc 87 45 4d be
       -0.7485825 -0.03542596 -0.023610136 -0.20046054

sequential/dense_2/BiasAdd/ReadVariableOp f4 [27]
000000 d1 46 61 bb 00 40 d1 3e 8e e0 10 3e 13 68 b6 bc
       -0.0034374485 0.4086914 0.14148161 -0.022266423
000010 03 ef 90 3e 30 41 42 3e fb f9 08 bc bc e4 d0 be
       0.2830735 0.1897018 -0.008360381 -0.4079951
000020 3f d6 11 3e 6c ea 9b be c5 62 c2 3e c3 de 59 bd
       0.14241885 -0.30452287 0.3796598 -0.053190958
000030 51 c6 18 3e c3 5c 09 3e 88 4c 27 3e 80 e0 6b 3b
       0.14919402 0.13414292 0.16337788 0.0035991967
000040 55 d5 c0 bd de bf 8d be e3 9e fa bd 3e 16 a4 3e
       -0.0941569 -0.27685446 -0.122373365 0.3204822
000050 c2 79 89 3d 4c 97 82 3e 5f be f3 be 1d eb e7 bd
       0.067126766 0.25506055 -0.4760618 -0.11324141
000060 54 db 55 be 9c 8c 3c bf 25 88 45 be
       -0.20884448 -0.7365205 -0.19290216

sequential/dense/BiasAdd/ReadVariableOp f4 [64]
000000 f5 36 4e bb 9f af ad be b8 05 b8 be e5 4e 50 3d
       -0.0031465862 -0.3392305 -0.35941863 0.05085649
000010 5a 11 cd be 00 00 00 00 6b f1 ab bb 23 9e 80 be
       -0.400523 0.0 -0.005247285 -0.2512065
000020 00 00 00 00 03 4a 81 3e 20 ac 00 bf 7d 0b eb be
       0.0 0.2525178 -0.5026264 -0.45907202
000030 00 00 00 00 45 84 39 bb 40 a3 c5 bd 34 b5 06 bc
       0.0 -0.0028307599 -0.09650278 -0.008221913
000040 24 cc fb be 17 1a 66 be 18 9f dd bd 00 00 00 00
       -0.49179184 -0.2247089 -0.1082136 0.0
000050 51 3d 8d be b2 a0 87 be 63 eb ce bb 1e 28 85 be
       -0.27585843 -0.26489788 -0.0063146814 -0.2600717
000060 00 00 00 00 00 00 00 00 12 ae ba 3e 23 01 a0 be
       0.0 0.0 0.3646093 -0.31250867
000070 10 c0 83 be 4e fa 8a be 00 00 00 00 8a 61 9d be
       -0.2573247 -0.27144092 0.0 -0.3073848
000080 19 4b 92 bb 23 80 8b be 0b 35 db be d3 72 83 be
       -0.0044645187 -0.27246198 -0.42813906 -0.2567354
000090 f3 f8 1f be 9e 75 8f be 00 00 00 00 d2 69 a0 bb
       -0.1562231 -0.28019422 0.0 -0.0048954273
0000a0 d4 16 69 be 00 00 00 00 00 00 00 00 00 00 00 00
       -0.22762614 0.0 0.0 0.0
0000b0 00 00 00 00 00 00 00 00 d7 b0 74 bc 18 19 66 3e
       0.0 0.0 -0.01493474 0.2247051
0000c0 69 18 1a bc 74 3f bd bd b8 c0 15 bc af b5 8e be
       -0.009405234 -0.09240618 -0.009140186 -0.2787299
0000d0 bf 45 f2 ba aa f7 af be 00 00 00 00 00 00 00 00
       -0.0018483921 -0.3436864 0.0 0.0
0000e0 3c f7 c9 be 3c 79 76 be 66 e7 36 bb e2 64 fe bb
       -0.39446437 -0.24069685 -0.002790892 -0.007763491
0000f0 09 56 00 bb 06 12 d3 bb 20 00 88 be ac ff 42 be
       -0.001958253 -0.0064413575 -0.26562595 -0.19042844

sequential/dense/MatMul f4 [64, 6]
000000 c6 cc 65 bd bc 7c d4 bc a7 28 65 bd 85 fc f9 3c
       -0.05610349 -0.025938384 -0.055946972 0.030515919
000010 fb 89 d7 3c 4c f2 32 3c 73 63 f2 3e 1d d7 5a bf
       0.026310911 0.010922026 0.473415 -0.85484487
000020 e2 0f 3f 3f 62 5a cd 3d b1 a1 26 3e 8b 68 58 3e
       0.7463361 0.10027005 0.16272618 0.2113363
000030 e1 ac 3b 3e b5 dc 38 3f a9 7c bf be 16 d2 06 be
       0.18327667 0.7221177 -0.37399796 -0.13166079
000040 5c 1c 16 3f 0c fc 51 bf 61 9f 4d bf a8 7f c0 3d
       0.5863702 -0.8202522 -0.8032132 0.093993485
000050 2f d2 79 3f 3d c7 f1 be d5 b8 c5 3e 20 4a b9 3e
       0.9758634 -0.4722232 0.38617578 0.36189365
000060 20 89 8d 3d ec ca d9 3e 1a 32 89 bd 7e 2c ae 3e
       0.0691092 0.4253763 -0.06699009 0.3401832
000070 5b 6e a2 3d 87 68 b3 3d 47 f7 43 3d c3 61 c0 bd
       0.07931205 0.087601714 0.047843244 -0.093936466
000080 fb d1 20 3b 3f fa c8 bd 0f 90 49 3c 1a f3 df bd
       0.002453922 -0.09813356 0.012302413 -0.1093504
000090 a3 cf 30 bd 42 30 3b 3b 66 64 d1 bc e7 65 18 bd
       -0.043166768 0.00285627 -0.025560569 -0.037206557
0000a0 71 e8 15 3d 4e bd ab bc ae cb 63 be 1f 0d dd 3d
       0.036598627 -0.020964291 -0.22245666 0.10793518
0000b0 a0 c7 a3 3c bf 3b 3a bd f3 2d 23 3f 34 53 a2 be
       0.01999265 -0.045467135 0.6374199 -0.31704104
0000c0 13 ea 38 bd bf ae 38 bd 53 65 73 bd 3f b3 0c 3d
       -0.045145106 -0.045088526 -0.059422802 0.03435063
0000d0 65 20 9c 3c 3b ab 1e 3c c9 0b f7 3e 54 dc 21 bd
       0.019058416 0.009684379 0.4825118 -0.039516762
0000e0 d0 90 89 3e 13 9e 01 3f 70 eb 3c bf 3b 80 0c 3f
       0.26868296 0.5063183 -0.7379675 0.54883164
0000f0 0c 32 5a 3f 9b d1 c6 3e ff 24 74 3c 65 48 39 be
       0.85232615 0.3883179 0.014901399 -0.18094023
000100 42 37 40 3e e4 e1 a1 be c9 88 8d 3e 52 26 12 bd
       0.18771079 -0.31617653 0.2764342 -0.035681076
000110 b9 7b bd 3e a4 a5 6f 3e 69 bb 8a 3e 48 fb 03 bf
       0.37008455 0.2340303 0.27096108 -0.515553
000120 9a 76 33 bd 22 92 f9 bc 8a 63 1a bc 50 79 bb bd
       -0.04381428 -0.03046519 -0.009423146 -0.09153998
000130 d0 cb 78 3b 3f 6b a9 3b 13 cb 0d 3c a0 86 08 3c
       0.0037963279 0.0051702554 0.008654374 0.008332878
000140 18 21 1a bd 62 15 09 3c b8 7d de ba e9 a5 fd bc
       -0.037629217 0.0083669145 -0.0016974723 -0.030962901
000150 5a a8 87 be d5 35 01 bd a2 a6 87 be 9d 9f 26 3e
       -0.2649563 -0.03154548 -0.26494318 0.16271825
000160 cf 30 70 3f 16 62 01 bf d6 57 1e 3c 76 7c 48 3c
       0.93824476 -0.5054029 0.009664496 0.012236705
000170 16 ba 12 3b ce 22 12 bc d3 2e d1 bc 2b 83 ce bd
       0.0022388748 -0.008919431 -0.025535023 -0.10083612
000180 75 4d b4 3e 44 aa b8 3e 5c 5c 0e 3f 36 17 27 bf
       0.35215345 0.36067402 0.5560968 -0.6526979
000190 51 8b 37 3e c5 3b 8b bc d1 bb 73 bb 6d 92 e2 bd
       0.17924239 -0.016996274 -0.0037190805 -0.11063085
0001a0 3e d9 72 be f1 25 93 bc b0 f9 41 3f 50 ae 76 be
       -0.23715684 -0.017962428 0.7577162 -0.24089932
0001b0 9e 58 21 bd b6 aa c7 bd 55 86 36 3c b2 ec dd be
       -0.039391153 -0.097493574 0.011140426 -0.43344647
0001c0 a9 cd 34 3f fb a5 4f bd 9f c1 b5 bd 16 08 35 bd
       0.7062631 -0.0506954 -0.08874821 -0.044197164
0001d0 b5 52 3a 3d 2b 33 ba bc 4a 6a 38 bd 58 6e 03 bd
       0.04548903 -0.022729477 -0.04502324 -0.032087654
0001e0 13 25 92 3b 1b f9 b9 ba 2e e8 fb bb ca ce da bd
       0.004459986 -0.0014188619 -0.00768759 -0.10683973
0001f0 47 aa 29 3f f3 32 8b be 8f 0f 01 3f a7 c7 22 3f
       0.6627545 -0.2718731 0.50414366 0.63585895
000200 dd 54 00 bf 2e e9 27 3d fd 36 02 3f 9b c8 77 be
       -0.5012949 0.04099386 0.50865155 -0.24197619
000210 64 fa 63 bd a8 cf d5 ba cb 08 5e bd db f2 4d 3d
       -0.055658713 -0.0016312497 -0.054207604 0.050280433
000220 3f f6 13 3b 64 1b 4e 3c 27 34 57 be e2 d0 aa 3e
       0.0022577194 0.012579773 -0.21015988 0.3336249
000230 c2 98 94 bc 0d e8 dd 3e 31 d9 c3 3e 5c a0 d4 be
       -0.018139247 0.43341103 0.3825164 -0.41528594
000240 b5 71 be bc eb 95 38 bc 2d 8b 67 bd 02 d6 e9 bc
       -0.02324758 -0.011266212 -0.056529213 -0.02854443
000250 e5 9e 61 3d 8b ff 1e bd 47 25 71 bb 0f 08 3b 3d
       0.055083174 -0.038817924 -0.00367959 0.045661982
000260 9d af 4f bd 49 07 2c bd 2d b7 f4 bd a7 93 01 bd
       -0.050704587 -0.041999135 -0.119490005 -0.031634953
000270 a1 07 65 3d 77 f8 74 be 66 f6 b0 3e a4 a1 e5 3e
       0.05591548 -0.23922907 0.34562987 0.44849885
000280 a5 20 24 bf be c5 3c 3f da d4 05 be 06 de 6c be
       -0.6411231 0.7373923 -0.13069478 -0.2313157
000290 2f 5c 92 3f cf 07 8d be f2 49 d8 3d 79 7d 98 be
       1.1434382 -0.2754502 0.10560979 -0.29783228
0002a0 5d 6c 1b bd 57 b8 61 bd 84 fe f3 3c 12 56 31 be
       -0.03794514 -0.05510744 0.029784448 -0.1731799
0002b0 d3 37 36 3f 4c 31 6a be 59 58 20 3f 9b 10 3d 3d
       0.7117893 -0.22870368 0.6263481 0.046158414
0002c0 fd 12 c5 be 02 7e 04 3f cc 10 d2 3e 2d 67 c5 bc
       -0.3849105 0.5175477 0.4102844 -0.02409705
0002d0 c8 75 62 bd fb 38 1d bd e3 f2 b7 3c 47 4d 8c bc
       -0.055288106 -0.03838442 0.022454685 -0.017126692
0002e0 26 07 91 bb c7 5d d6 3c 20 80 bb 3e fc 44 f4 be
       -0.004425901 0.026167763 0.3662119 -0.4770888
0002f0 c8 ac 0c 3f 68 8d a1 bc ce 18 14 3f ee 9b fb be
       0.54951143 -0.019720748 0.5785035 -0.49142402
000300 bb 29 d4 be c7 13 d6 3e d3 4e ea 3c d0 f9 49 bf
       -0.41438088 0.41811964 0.02860204 -0.7889681
000310 b5 47 3a 3f eb 75 78 3e 44 1a c8 39 2f e6 40 bc
       0.72765666 0.24263732 0.00038166542 -0.01177363
000320 e8 ce 69 bc 5a 19 29 bd 15 2c 16 3f 1d 51 82 be
       -0.014270522 -0.041283943 0.58661014 -0.2545251
000330 d9 7c 4e 3e 71 d9 40 3f 18 b0 3c 3e fc e2 99 be
       0.20164813 0.7533179 0.1842655 -0.30055988
000340 19 3a 0c bd 0e 2e 66 3e d1 24 53 3d 54 58 10 3d
       -0.034235094 0.22478506 0.051548783 0.035240486
000350 a6 d3 86 3c d5 19 6e be 21 ed 2d 3f f8 ba 84 be
       0.016458344 -0.23252042 0.67939955 -0.25923896
000360 06 92 84 3e 6f c4 a8 be 42 41 5e bd 96 d0 17 be
       0.25892657 -0.32962367 -0.054261453 -0.14825663
000370 c3 7c 2b 3f 81 07 96 be 07 2e 88 bd 83 f3 0e bb
       0.66987246 -0.293026 -0.06649404 -0.0021812625
000380 5e fd c0 39 86 7d 9c bd 65 3a 33 3f b8 15 a1 be
       0.00036809867 -0.07641129 0.7001098 -0.31461883
000390 07 41 f7 3c 03 db 3f 3d e7 dd ef bc 97 0e 2f bb
       0.030182375 0.046839725 -0.029280616 -0.0026711577
0003a0 55 ca e2 bd a0 ab 0e bd ce 94 75 bd 39 20 47 3d
       -0.11073748 -0.034831643 -0.059956364 0.048614714
0003b0 93 f2 d6 3c 58 91 27 bc 03 2c a2 bd ef dd 80 bb
       0.026238715 -0.010227524 -0.07918551 -0.0039327065
0003c0 cd a3 f0 3e ca 7b 29 3f b4 e5 f2 be 20 92 6d 3c
       0.4699997 0.6620451 -0.47440875 0.014500171
0003d0 fc 14 1b 3e e6 6f b5 3e ab 4b c1 bd c3 ca 42 bd
       0.15144724 0.35436934 -0.09438261 -0.04755665
0003e0 3f 35 77 3d 0e 8d c3 bc a7 5b 46 bb 48 d2 e5 bc
       0.060353514 -0.023870971 -0.0030267031 -0.028054371
0003f0 93 55 52 3d be 3a 97 bb b9 9e a6 bd cf 15 11 bd
       0.05135114 -0.004615157 -0.08135743 -0.03542119

sequential/dense_1/MatMul f4 [64, 64]
000000 d7 df 50 3d fb 39 0f 3d 4c 1b 07 bf 3c a2 ae 3d
       0.05099472 0.034967404 -0.52776027 0.085270375
000010 50 0c a3 3e 5e 56 01 3d a3 3d 02 3d d8 62 04 3f
       0.3184533 0.031576507 0.031797063 0.51713324
000020 3e 78 34 3d 69 65 28 3c e1 f5 c6 bc 67 b0 5f 3e
       0.044059984 0.010278084 -0.024287166 0.21844636
000030 d0 98 d1 3d c2 a9 33 3d 1f d5 a0 3e 91 d6 ba 3c
       0.10234225 0.043863066 0.31412598 0.022807391
000040 81 d6 71 bc 15 92 3f bf 2c 39 4d bf 0e a1 3c bd
       -0.014760614 -0.7483228 -0.8016536 -0.04605203
000050 a4 8e dc 3d e4 b5 59 3e 69 86 a1 bc e2 f1 e2 3e
       0.10769394 0.21260792 -0.019717412 0.44325167
000060 93 31 82 bd 7b 65 a3 bc f3 5d b0 bb 08 ca 4e bd
       -0.06357112 -0.01994585 -0.0053822934 -0.05048564
000070 ea 61 96 3c cf 5f 98 3e f2 10 df 3c 7b a2 49 3e
       0.018357236 0.29760596 0.02722976 0.19690888
000080 e0 27 e5 be c1 01 b0 3d 1e 07 3d bd 05 12 eb 3d
       -0.44756985 0.085940845 -0.046149366 0.11478046
000090 46 ac c5 3d 71 3d a4 3e 32 2c 7b bd 57 db 13 bc
       0.09651999 0.32078126 -0.061321445 -0.009024463
0000a0 60 19 12 3e 48 ee 7c bd 9b 7b c1 3b db e3 68 3b
       0.14267492 -0.06175068 0.0059046275 0.0035536203
0000b0 52 fd 34 3d bc 1a 1b 3d a8 6b 69 3d 56 cc f1 bd
       0.044186898 0.037867293 0.056987435 -0.11806552
0000c0 79 82 4b 3d ab 19 a0 be af 25 fc 3c f9 4c 98 3e
       0.049684975 -0.31269583 0.030779688 0.29746225
0000d0 d5 b3 91 3d be 0b f6 bd 0a c2 84 3c 79 83 87 3c
       0.07114378 -0.120139584 0.016205806 0.016542183
0000e0 f5 f8 f8 3e 79 f7 77 3e 7b 8a 4e bc 2f ce 07 3c
       0.4862744 0.24215497 -0.0126062585 0.008288904
0000f0 c8 ff 21 3d f5 cd d2 3d 9e b1 9e 3d eb 49 36 bd
       0.039550573 0.102931894 0.077487215 -0.044504087
000100 a3 5b 9a bd 86 c8 0b 3f 4f bd 3d 3f b8 ad 2b bf
       -0.075370096 0.5460285 0.74116987 -0.6706195
000110 82 47 88 3e 00 fc b9 3c 6b 2b ac 3c 55 36 fb bd
       0.26617056 0.02270317 0.021016797 -0.122662224
000120 73 bd 9c 3b bc 88 a4 be 67 4c 13 3f 97 9d 1c 3f
       0.0047833263 -0.3213557 0.57538456 0.61177963
000130 b6 4d 25 bd c5 91 d5 bd ce 55 df 3e d0 c2 d4 bc
       -0.040357314 -0.10428194 0.4362015 -0.0259718
000140 41 d1 99 bd b2 a4 1c 3f 73 3a bc 3d 1b 5e a6 3c
       -0.07510615 0.61188805 0.09190836 0.020308545
000150 18 0a 95 3d b2 1f 1e 3f ab a8 a2 bd a4 ed 72 3e
       0.07277316 0.61767113 -0.07942327 0.23723465
000160 a4 fb 2c bd 26 02 48 bd f0 9a d1 be f2 3e 08 bf
       -0.04223217 -0.048830174 -0.4093852 -0.53221047
000170 08 4b 8f 3e ea 32 20 3f 87 77 df bc 08 d3 e2 3e
       0.27986932 0.6257769 -0.027278675 0.4430163
000180 c0 11 1e bf 59 e6 c0 3d 6a 18 71 bd b8 46 ec bc
       -0.61745834 0.09418935 -0.058861174 -0.028842315
000190 e0 59 23 3f 68 6d 26 3e 47 76 47 bb 05 12 09 3d
       0.63809013 0.16252673 -0.003043549 0.03346445
0001a0 e8 6e d5 3e 1f 59 99 3c eb 37 1f 3d e6 d1 3e bd
       0.41686177 0.018719254 0.038871687 -0.046586893
0001b0 ff 68 f8 bc 67 f2 ef 3c 27 02 02 3e e0 91 2d bf
       -0.030323504 0.029290391 0.12696134 -0.6780071
0001c0 25 a6 1b 3a 1d 5f 95 3e 60 d2 4b ba 88 85 4e 3e
       0.0005937538 0.29174128 -0.0007775184 0.20168126
0001d0 0d 96 37 bd 93 77 b7 3d 1e f5 2e 3d 43 11 d5 3c
       -0.044820834 0.08958354 0.04271423 0.026009208
0001e0 a9 d3 2a 3e 71 9f 81 3e 53 5c 35 3d f8 6e a9 3c
       0.16682304 0.25316957 0.0442775 0.020682797
0001f0 15 c3 8a 3d c5 fe 02 3d d1 df 2f bf 64 c3 8c 3b
       0.0677549 0.03198125 -0.6870089 0.0042957533
000200 bb f4 03 bd 49 59 c4 bd 47 99 ac bd 78 23 a3 bc
       -0.032215815 -0.09587342 -0.08427673 -0.019914374
000210 b9 93 63 bd fb f9 4d bd 08 0c 23 bd 3d 16 ea bc
       -0.0555608 -0.050287228 -0.039806396 -0.028575057
000220 53 95 3a 3d 5a f1 6d bc d5 cc 97 3d 51 ca 30 bb
       0.045552563 -0.014522875 0.074121155 -0.0026976059
000230 73 4b a1 bd 2f da 5a bd 53 87 8f 3c 00 a1 e4 ba
       -0.07875719 -0.053430732 0.017520582 -0.0017443001
000240 ba 7e a6 bc 3a 1f 77 3d 15 a6 46 3c 50 7c e9 bb
       -0.0203241 0.060332514 0.012124558 -0.007125415
000250 4a b8 1a bd fe 48 76 3d d2 f4 57 bd 6f 5b d7 bc
       -0.037773408 0.060128205 -0.052723713 -0.026288716
000260 fc 74 03 3d 9b bb 66 bd 0e dc 71 3b 0f bf 1d bd
       0.032093987 -0.05633126 0.0036904844 -0.038512286
000270 ad a3 51 3d 88 16 8c bd 40 7e 8c bd 48 55 81 bb
       0.051181484 -0.06840235 -0.06860018 -0.003946934
000280 6d 9c 99 bd 1d b2 b8 3b 01 43 0c bd b5 df 94 3d
       -0.07500539 0.005636467 -0.034243587 0.07269231
000290 51 65 8f 3c 86 fc 51 bd 8d 57 1e bd 47 ce 20 bd
       0.017504366 -0.051266216 -0.038657714 -0.03925922
0002a0 04 7e 44 3c df 0c 66 3b b8 bc 5a bd 36 9e 89 bd
       0.011992935 0.0035102887 -0.053402632 -0.067196295
0002b0 99 da 95 bd 92 44 86 3c c2 00 cf bc 4d b7 23 3c
       -0.07317085 0.016390119 -0.025268916 0.009992433
0002c0 aa b2 74 bd 7e f6 8c bb f1 95 14 3d f5 73 a9 ba
       -0.0597407 -0.004301845 0.036275808 -0.0012928235
0002d0 1a ae 8b 3b 39 0f 78 bc eb c0 7d 3c 49 54 b4 bd
       0.004262698 -0.015140348 0.01548789 -0.088051386
0002e0 fa 28 b0 bd 8f 7f 93 bd f5 51 d5 ba 0c bc 2e bd
       -0.08601566 -0.07202064 -0.0016275035 -0.042659804
0002f0 80 a5 a7 3c 92 6f 7b bc 34 93 ca 3c c7 14 1d 3d
       0.020464659 -0.015346425 0.024728395 0.038349893
000300 ea f9 ce bd b8 fe e6 3e 77 e5 ba be 25 74 7d 3f
       -0.10106261 0.4511621 -0.36503193 0.9900535
000310 90 80 01 3d a8 82 4f 3d 1c d6 8b bd ba ff a1 3e
       0.031616747 0.050661713 -0.068279475 0.31640416
000320 d2 80 5a 3d f8 6d 59 be ef 8a 88 be f0 83 9a bd
       0.05334551 -0.21233356 -0.26668498 -0.07544696
000330 fe 0d a5 bd 03 80 a5 bd ba 16 58 3d 6e 49 6e bd
       -0.080593094 -0.08081057 0.05275605 -0.058175497
000340 8a 05 1b 3f 38 d2 04 bf 99 ee 0a 3f 58 37 68 bd
       0.60555327 -0.5188327 0.5427032 -0.056693405
000350 9e 52 47 3e 72 21 19 bf d7 07 84 3d 32 ec 36 be
       0.1946511 -0.5981666 0.06446808 -0.17863539
000360 05 d9 8d bd b6 bc 33 3d 22 0d 6a 3e fd cb 33 bf
       -0.06926159 0.04388114 0.22856572 -0.70233136
000370 51 5c 83 3e f9 c0 3d 3d 6d 30 13 3d 26 89 c1 3d
       0.2565637 0.04632661 0.035934854 0.09449987
000380 6f 00 39 3f a4 70 d8 3d 64 cd e2 3d 16 0d 14 3f
       0.72266287 0.105683595 0.110743314 0.5783247
000390 ef 58 f6 3d 8c fe 30 3e e3 62 19 bd a9 bb 00 3c
       0.120286815 0.17284602 -0.03744782 0.007857242
0003a0 e2 05 a2 3c c3 c3 84 bd fe 18 8c 3d 15 42 4d bd
       0.019778196 -0.06482651 0.068407044 -0.05011185
0003b0 c0 b4 86 3c dd 2d 8b bb 62 78 98 3c c3 2f 97 3d
       0.01644361 -0.0042474107 0.01861209 0.07382157
0003c0 45 67 3b bd 34 19 7a 3f 46 d8 06 be 88 43 c5 3e
       -0.045752782 0.97694707 -0.1316844 0.38528085
0003d0 ba 10 f2 3c 84 6b 18 3e 33 d0 19 bd 15 d7 a3 3d
       0.029548991 0.14884764 -0.03755207 0.08000008
0003e0 2a 0b c1 3e 8a cb 68 3e 6c 45 c8 bc d1 7c b0 3b
       0.3770383 0.22733894 -0.024447165 0.005385973
0003f0 a8 ad 17 bd 1a a2 49 bd bd 07 50 3f af c3 60 3f
       -0.037030846 -0.049226858 0.8126181 0.8779859

sequential/dense_2/MatMul f4 [27, 64]
000000 6c 08 a1 3d 67 fa 0b bd 80 f3 16 bd 1a 5a 62 3e
       0.078629345 -0.03417435 -0.036853313 0.22104684
000010 d7 e4 d9 bf c7 e3 91 be 44 42 12 bb 14 2b 15 3d
       -1.7022961 -0.28494093 -0.002231733 0.036418036
000020 87 05 a9 bf 30 ca 07 bf 32 0a 34 3d 97 d8 8d 3a
       -1.3204812 -0.5304289 0.043955036 0.0010821995
000030 91 a3 43 be a3 b5 18 3d 4d c5 d5 bc c0 81 ef 3d
       -0.19105364 0.037282597 -0.026095057 0.1169467
000040 d0 f1 86 be d1 1c 1a 3c 02 78 2a 3d 36 a1 c0 be
       -0.26356363 0.009406284 0.041618355 -0.37622994
000050 8a fe 70 be 35 7c 37 bd c5 82 99 3d 74 51 83 3c
       -0.23534599 -0.044796187 0.074956454 0.01603005
000060 ea 1b 5b bf 34 05 17 3d 6a a5 c0 bf 5b 75 67 be
       -0.8558947 0.036870196 -1.505048 -0.22603361
000070 54 bd 85 3c ef f0 15 3d cb 5e d8 3c 0a 70 0f be
       0.01632563 0.036606725 0.026412388 -0.14007583
000080 d7 1d af bc 39 83 65 3e af 8a 44 bd b2 45 38 bc
       -0.021376533 0.22413339 -0.04798382 -0.011247085
000090 ba eb 91 3e 9f 10 43 3f 05 ab 93 3f a3 08 1c bc
       0.28500158 0.76197237 1.1536566 -0.0095235435
0000a0 71 49 85 bd 04 fa ca 3c 92 d8 f8 3e a0 f0 8f 3e
       -0.065081485 0.02477742 0.4860273 0.2811327
0000b0 ee fd 38 3b 1b b8 c9 bc 43 14 03 3e 88 68 5e bd
       0.0028227526 -0.024623921 0.12800698 -0.054298908
0000c0 51 1e cf be 96 c1 e0 bb a2 fc 80 3f 70 7c ba 3c
       -0.40452817 -0.0068590147 1.0077097 0.022764415
0000d0 56 d3 26 3f 50 be a8 3d 0f 76 5d 3b 1c d4 43 3d
       0.65166223 0.08239424 0.0033792292 0.047809705
0000e0 60 3e dc be 4c f2 48 3d b0 59 b9 bd 95 a0 1d 3f
       -0.43016338 0.049059197 -0.0905031 0.61573154
0000f0 10 8d 9d 3e aa 61 48 3c c9 0e e1 3d ea e8 32 bf
       0.30771685 0.012230316 0.10989148 -0.6988665
000100 ac f2 c6 bd 19 86 f7 3e 73 d5 55 3d cd 7a 90 be
       -0.09714255 0.48344496 0.052205514 -0.2821869
000110 be b5 04 3e 91 92 6b bd 7b c1 3c bd 1b b9 9e bd
       0.12959954 -0.057512823 -0.046082955 -0.0775015
000120 f8 33 ae be e3 3e b5 3e 15 2e c0 3c 1c 08 38 bc
       -0.34024024 0.3539954 0.023459474 -0.011232402
000130 4b a1 20 bf ae 15 c1 3d 0c b8 e4 bc 62 e0 33 bd
       -0.62746114 0.09427963 -0.027919792 -0.04391516
000140 7a 4d 54 bd 5c e3 d6 bd 92 8a 31 3d 8f f0 f0 3c
       -0.0518317 -0.10492584 0.04334504 0.029411582
000150 99 8b 95 be 02 66 8b 3c ff 99 48 bb b9 b6 d5 3d
       -0.29208067 0.017016415 -0.0030609367 0.10435242
000160 91 2a f3 3e 4f 28 cb 3c 06 ba b1 3e ea 37 39 bf
       0.47493413 0.024799494 0.34712237 -0.72350943
000170 09 30 c1 3c bf 56 7d bd 75 65 e5 3b 12 7f 69 bf
       0.023582475 -0.061850306 0.00700062 -0.9120952
000180 62 ff 9b bc 94 74 86 bf 6b 48 94 3d bc 9d a9 bc
       -0.019042674 -1.0504327 0.07240375 -0.020705096
000190 9b 02 1b 3f 5b 97 03 be ab 75 8c 3f f5 93 bd bb
       0.6055085 -0.12850706 1.097341 -0.00578546
0001a0 64 be 7f 3b ef be b0 3c 18 24 81 be 39 d0 d7 bd
       0.0039023394 0.02157542 -0.2522285 -0.10537762
0001b0 ee 9b 4e 3d 59 07 b1 3c 4f 16 2f bd a7 52 25 bd
       0.050441675 0.021609949 -0.042745885 -0.040362027
0001c0 42 9c 37 3d 9d f1 df be 6e 7f 9b bf e0 54 34 bb
       0.044826753 -0.43739024 -1.2148263 -0.002751641
0001d0 02 e5 43 bc 71 a8 28 3d e1 f0 7a 3c 4b bf 8d bc
       -0.011956455 0.041176263 0.015316219 -0.01730313
0001e0 de f6 89 3f d4 31 49 bd 6d 77 17 3f b9 60 19 3e
       1.0778463 -0.049119785 0.59166604 0.14978303
0001f0 71 58 a3 bd a4 15 22 bd 6b 5c 56 3d 47 a7 30 3f
       -0.07975853 -0.03957142 0.05233423 0.69005245
000200 19 0c 31 be a8 97 3d 3e 9b 76 24 bd 1c 30 5d 3c
       -0.17289771 0.18514884 -0.040152173 0.01350024
000210 37 c9 54 3d b2 48 44 be ff e2 49 bd a7 48 bf bd
       0.051949706 -0.19168356 -0.049288746 -0.09340029
000220 57 cb 99 bd 79 84 71 bf 69 f3 34 3c 8f 67 2e bc
       -0.07509487 -0.9434276 0.011044362 -0.0106448075
000230 32 96 b4 be 0a e6 62 3c 4e 30 e8 3c 63 ea 58 3d
       -0.3527084 0.013848791 0.028343346 0.052957904
000240 78 ad 66 bd 09 20 6e 3c 6a 8a a4 bd 52 fa 02 3f
       -0.056317776 0.014534005 -0.08034213 0.5116321
000250 5d 6e a8 be 8f 04 de 3b 93 1a d2 3d c1 de 9e 3c
       -0.328967 0.006775446 0.10258975 0.019393327
000260 9d 4a 90 3e 74 44 91 3b da 47 49 be e5 ff ae bc
       0.28181925 0.004433209 -0.19656315 -0.021362254
000270 23 f9 3c 3b 2b 13 e8 bc a0 40 83 3c 21 0f 24 be
       0.002883502 -0.028329452 0.016022027 -0.16021396
000280 a0 26 0e 3d 2c 1e 95 3c c7 cb 3e bd fc d6 cf 3d
       0.034704804 0.018202864 -0.046581056 0.10148427
000290 b3 e9 98 3e 4e 05 f8 3d 18 45 f8 3e 3f 0a 84 3c
       0.29865798 0.12110387 0.48490214 0.016118167
0002a0 fa 3e b5 bc f3 cd 28 bd ac 7c 56 be 42 1a ad 3c
       -0.022124756 -0.041212033 -0.20945996 0.021130685
0002b0 1f 8c d2 bb f6 6b 98 bd 0c f9 88 3c 36 ce aa bd
       -0.006425395 -0.07442467 0.016720317 -0.08340113
0002c0 01 ab 68 bd c1 5b b6 be c1 83 82 bf 4e 49 d0 3c
       -0.056803707 -0.35616878 -1.0196458 0.02542558
0002d0 24 b2 13 bf b0 be 53 3d 5f 9a 83 3d 5a 91 97 bd
       -0.57693696 0.051695526 0.06425928 -0.074007705
0002e0 d3 8f 83 3f e9 c0 77 3d 76 41 f8 ba 3c 20 6e be
       1.0278267 0.060486708 -0.0018940407 -0.23254484
0002f0 a5 6a 07 3e ce fb ca bd 57 75 41 3d 67 6c a7 3e
       0.13224275 -0.09911309 0.047231045 0.32699892
000300 29 0b 3f 3e 0b a9 dd bd 48 7b c6 bb ff a6 7e 3e
       0.18656601 -0.10823258 -0.0060571767 0.24868391
000310 2c df 87 bf db 5b 21 3d 0c 2b 02 bc 37 84 c7 be
       -1.0614982 0.03939424 -0.0079448335 -0.3896806
000320 9d 8e 58 3f 27 d2 54 bf 0d 32 af bd 1d 75 16 3d
       0.8459261 -0.8313317 -0.08554468 0.03673278
000330 ca 5a 64 3d 39 bc cb 3c 36 b6 79 3c 97 b8 02 be
       0.055750646 0.024870025 0.015241196 -0.12765728
000340 36 5f b0 3e b9 d5 0c 3d 09 c1 0f bd 92 25 22 bf
       0.3444764 0.03438351 -0.035096202 -0.6333858
000350 71 f8 12 3d 84 75 be 3c 52 e7 a2 3d 04 79 77 bc
       0.035881463 0.023249395 0.07954277 -0.015104536
000360 18 b3 3a be 58 58 93 3b 67 f7 bf be 2a 16 8e be
       -0.18232381 0.0044966154 -0.3749344 -0.27751285
000370 02 ff 21 bd a8 77 93 bd 56 f7 11 3d 65 b9 cf bd
       -0.039549835 -0.07200557 0.03563627 -0.10142783
000380 7d a3 f2 bc fc d9 d2 be 18 3b 85 3c 58 27 90 3c
       -0.029618973 -0.41181934 0.01626353 0.017596886
000390 fe 4b 90 bd ba fc e5 bb 2c 5c fe 3f 5d d5 f4 3c
       -0.07045744 -0.0070186527 1.9871879 0.029886896
0003a0 c5 83 76 3d 8b 42 24 bc 36 f8 85 bd 5b dd 06 3e
       0.06018426 -0.010025631 -0.06541483 0.13170378
0003b0 30 e5 0a 3a 88 95 da bc b5 aa 66 bd 13 dc 78 3a
       0.0005298434 -0.02668263 -0.056315143 0.0009493243
0003c0 5b 2a f9 3d d6 81 1f bd bb 5d 7b 3f 17 5f b2 3d
       0.12166282 -0.03894218 0.98189896 0.08709543
0003d0 64 d8 a1 be cb 5a b1 bc 05 9e e6 3c 85 b7 d6 bc
       -0.31610405 -0.021649739 0.028151521 -0.026210556
0003e0 0d a9 b6 be a7 c6 32 3d 40 77 19 bf 60 5a 07 3f
       -0.3567585 0.04364648 -0.59947586 0.52872276
0003f0 1c 0b 59 bf 3a 1a 9b 3d dd c4 60 3d 21 9d 4e bf
       -0.84782577 0.07573362 0.054875243 -0.8070851
